…
47/47 - 4s - loss: 0.0024 - loo: 0.3956 - lr: 4.8828e-07 - 4s/epoch - 83ms/step
Epoch 200/200
47/47 - 4s - loss: 0.0024 - loo: 0.3904 - lr: 4.8828e-07 - 4s/epoch - 84ms/step
Total training time: 773.1413168907166 [s]

58/58 [==============================] - 3s 48ms/step
Model: "model"
_________________________________________________________________
 Layer (type)                Output Shape              Param #   
=================================================================
 input_1 (InputLayer)        [(None, 2, 1, 1)]         0         
                                                                 
 conv2d_transpose (Conv2DTra  (None, 2, 2, 40)         2000      
 nspose)                                                         
                                                                 
 p_re_lu (PReLU)             (None, 2, 2, 40)          160       
                                                                 
 conv2d_transpose_1 (Conv2DT  (None, 4, 4, 40)         78440     
 ranspose)                                                       
                                                                 
 p_re_lu_1 (PReLU)           (None, 4, 4, 40)          640       
                                                                 
 conv2d_transpose_2 (Conv2DT  (None, 4, 4, 40)         78440     
 ranspose)                                                       
                                                                 
 p_re_lu_2 (PReLU)           (None, 4, 4, 40)          640       
                                                                 
 conv2d_transpose_3 (Conv2DT  (None, 8, 8, 40)         78440     
 ranspose)                                                       
                                                                 
 p_re_lu_3 (PReLU)           (None, 8, 8, 40)          2560      
                                                                 
 conv2d_transpose_4 (Conv2DT  (None, 8, 8, 40)         78440     
 ranspose)                                                       
                                                                 
 p_re_lu_4 (PReLU)           (None, 8, 8, 40)          2560      
                                                                 
 conv2d_transpose_5 (Conv2DT  (None, 16, 16, 40)       78440     
 ranspose)                                                       
                                                                 
 p_re_lu_5 (PReLU)           (None, 16, 16, 40)        10240     
                                                                 
 conv2d_transpose_6 (Conv2DT  (None, 16, 16, 40)       78440     
 ranspose)                                                       
                                                                 
 p_re_lu_6 (PReLU)           (None, 16, 16, 40)        10240     
                                                                 
 conv2d_transpose_7 (Conv2DT  (None, 32, 32, 40)       78440     
 ranspose)                                                       
                                                                 
 p_re_lu_7 (PReLU)           (None, 32, 32, 40)        40960     
                                                                 
 conv2d_transpose_8 (Conv2DT  (None, 32, 32, 40)       78440     
 ranspose)                                                       
                                                                 
 p_re_lu_8 (PReLU)           (None, 32, 32, 40)        40960     
                                                                 
 conv2d_transpose_9 (Conv2DT  (None, 64, 64, 40)       78440     
 ranspose)                                                       
                                                                 
 p_re_lu_9 (PReLU)           (None, 64, 64, 40)        163840    
                                                                 
 conv2d (Conv2D)             (None, 64, 64, 3)         5883      
                                                                 
=================================================================
Total params: 986,643
Trainable params: 986,643
Non-trainable params: 0
_________________________________________________________________
{'train_frac': 0.8, 'kernel_size': 7, 'activation': 'prelu', 'filters': 40, 'batch_size': 32, 'strides': [2, 1, 2, 1, 2, 1, 2, 1, 2]}
…
47/47 - 10s - loss: 2.9354e-04 - loo: 0.1095 - lr: 6.2500e-05 - 10s/epoch - 202ms/step
Epoch 200/200
47/47 - 10s - loss: 2.7190e-04 - loo: 0.1040 - lr: 6.2500e-05 - 10s/epoch - 202ms/step
Total training time: 1891.9971537590027 [s]

58/58 [==============================] - 7s 113ms/step
Model: "model_1"
_________________________________________________________________
 Layer (type)                Output Shape              Param #   
=================================================================
 input_2 (InputLayer)        [(None, 2, 1, 1)]         0         
                                                                 
 conv2d_transpose_10 (Conv2D  (None, 2, 2, 72)         5904      
 Transpose)                                                      
                                                                 
 p_re_lu_10 (PReLU)          (None, 2, 2, 72)          288       
                                                                 
 conv2d_transpose_11 (Conv2D  (None, 4, 4, 72)         419976    
 Transpose)                                                      
                                                                 
 p_re_lu_11 (PReLU)          (None, 4, 4, 72)          1152      
                                                                 
 conv2d_transpose_12 (Conv2D  (None, 4, 4, 72)         419976    
 Transpose)                                                      
                                                                 
 p_re_lu_12 (PReLU)          (None, 4, 4, 72)          1152      
                                                                 
 conv2d_transpose_13 (Conv2D  (None, 8, 8, 72)         419976    
 Transpose)                                                      
                                                                 
 p_re_lu_13 (PReLU)          (None, 8, 8, 72)          4608      
                                                                 
 conv2d_transpose_14 (Conv2D  (None, 8, 8, 72)         419976    
 Transpose)                                                      
                                                                 
 p_re_lu_14 (PReLU)          (None, 8, 8, 72)          4608      
                                                                 
 conv2d_transpose_15 (Conv2D  (None, 16, 16, 72)       419976    
 Transpose)                                                      
                                                                 
 p_re_lu_15 (PReLU)          (None, 16, 16, 72)        18432     
                                                                 
 conv2d_transpose_16 (Conv2D  (None, 16, 16, 72)       419976    
 Transpose)                                                      
                                                                 
 p_re_lu_16 (PReLU)          (None, 16, 16, 72)        18432     
                                                                 
 conv2d_transpose_17 (Conv2D  (None, 32, 32, 72)       419976    
 Transpose)                                                      
                                                                 
 p_re_lu_17 (PReLU)          (None, 32, 32, 72)        73728     
                                                                 
 conv2d_transpose_18 (Conv2D  (None, 32, 32, 72)       419976    
 Transpose)                                                      
                                                                 
 p_re_lu_18 (PReLU)          (None, 32, 32, 72)        73728     
                                                                 
 conv2d_transpose_19 (Conv2D  (None, 64, 64, 72)       419976    
 Transpose)                                                      
                                                                 
 p_re_lu_19 (PReLU)          (None, 64, 64, 72)        294912    
                                                                 
 conv2d_1 (Conv2D)           (None, 64, 64, 3)         17499     
                                                                 
=================================================================
Total params: 4,294,227
Trainable params: 4,294,227
Non-trainable params: 0
_________________________________________________________________
{'train_frac': 0.8, 'kernel_size': 9, 'activation': 'prelu', 'filters': 72, 'batch_size': 32, 'strides': [2, 1, 2, 1, 2, 1, 2, 1, 2]}
…
