…
93/93 - 3s - loss: 2.2685e-04 - loo: 0.0367 - lr: 1.9531e-06 - 3s/epoch - 32ms/step
Epoch 200/200
93/93 - 3s - loss: 2.2682e-04 - loo: 0.0369 - lr: 1.9531e-06 - 3s/epoch - 32ms/step
Total training time: 593.5359597206116 [s]

58/58 [==============================] - 2s 30ms/step
Model: "model"
_________________________________________________________________
 Layer (type)                Output Shape              Param #   
=================================================================
 input_1 (InputLayer)        [(None, 2, 1, 1)]         0         
                                                                 
 conv2d_transpose (Conv2DTra  (None, 2, 2, 40)         2000      
 nspose)                                                         
                                                                 
 conv2d_transpose_1 (Conv2DT  (None, 4, 4, 40)         78440     
 ranspose)                                                       
                                                                 
 conv2d_transpose_2 (Conv2DT  (None, 8, 8, 40)         78440     
 ranspose)                                                       
                                                                 
 conv2d_transpose_3 (Conv2DT  (None, 16, 16, 40)       78440     
 ranspose)                                                       
                                                                 
 conv2d_transpose_4 (Conv2DT  (None, 32, 32, 40)       78440     
 ranspose)                                                       
                                                                 
 conv2d_transpose_5 (Conv2DT  (None, 64, 64, 40)       78440     
 ranspose)                                                       
                                                                 
 conv2d (Conv2D)             (None, 64, 64, 3)         5883      
                                                                 
=================================================================
Total params: 400,083
Trainable params: 400,083
Non-trainable params: 0
_________________________________________________________________
{'train_frac': 0.8, 'kernel_size': 7, 'activation': 'relu', 'filters': 40, 'batch_size': 16}
----------------------
err_loo: 1.0001548296407519
…
93/93 - 3s - loss: 2.2380e-04 - loo: 0.0299 - lr: 7.8125e-06 - 3s/epoch - 37ms/step
Epoch 200/200
93/93 - 3s - loss: 2.2391e-04 - loo: 0.0291 - lr: 7.8125e-06 - 3s/epoch - 36ms/step
Total training time: 683.8731727600098 [s]

58/58 [==============================] - 2s 33ms/step
Model: "model_1"
_________________________________________________________________
 Layer (type)                Output Shape              Param #   
=================================================================
 input_2 (InputLayer)        [(None, 2, 1, 1)]         0         
                                                                 
 conv2d_transpose_6 (Conv2DT  (None, 2, 2, 40)         2000      
 ranspose)                                                       
                                                                 
 p_re_lu (PReLU)             (None, 2, 2, 40)          160       
                                                                 
 conv2d_transpose_7 (Conv2DT  (None, 4, 4, 40)         78440     
 ranspose)                                                       
                                                                 
 p_re_lu_1 (PReLU)           (None, 4, 4, 40)          640       
                                                                 
 conv2d_transpose_8 (Conv2DT  (None, 8, 8, 40)         78440     
 ranspose)                                                       
                                                                 
 p_re_lu_2 (PReLU)           (None, 8, 8, 40)          2560      
                                                                 
 conv2d_transpose_9 (Conv2DT  (None, 16, 16, 40)       78440     
 ranspose)                                                       
                                                                 
 p_re_lu_3 (PReLU)           (None, 16, 16, 40)        10240     
                                                                 
 conv2d_transpose_10 (Conv2D  (None, 32, 32, 40)       78440     
 Transpose)                                                      
                                                                 
 p_re_lu_4 (PReLU)           (None, 32, 32, 40)        40960     
                                                                 
 conv2d_transpose_11 (Conv2D  (None, 64, 64, 40)       78440     
 Transpose)                                                      
                                                                 
 p_re_lu_5 (PReLU)           (None, 64, 64, 40)        163840    
                                                                 
 conv2d_1 (Conv2D)           (None, 64, 64, 3)         5883      
                                                                 
=================================================================
Total params: 618,483
Trainable params: 618,483
Non-trainable params: 0
_________________________________________________________________
{'train_frac': 0.8, 'kernel_size': 7, 'activation': 'prelu', 'filters': 40, 'batch_size': 16}
----------------------
err_loo: 0.9976313166172429
…
93/93 - 4s - loss: 2.2702e-04 - loo: 0.0336 - lr: 7.8125e-06 - 4s/epoch - 45ms/step
Epoch 200/200
93/93 - 4s - loss: 2.2733e-04 - loo: 0.0339 - lr: 7.8125e-06 - 4s/epoch - 45ms/step
Total training time: 843.562272310257 [s]

58/58 [==============================] - 2s 40ms/step
Model: "model_2"
_________________________________________________________________
 Layer (type)                Output Shape              Param #   
=================================================================
 input_3 (InputLayer)        [(None, 2, 1, 1)]         0         
                                                                 
 conv2d_transpose_12 (Conv2D  (None, 2, 2, 64)         3200      
 Transpose)                                                      
                                                                 
 conv2d_transpose_13 (Conv2D  (None, 4, 4, 64)         200768    
 Transpose)                                                      
                                                                 
 conv2d_transpose_14 (Conv2D  (None, 8, 8, 64)         200768    
 Transpose)                                                      
                                                                 
 conv2d_transpose_15 (Conv2D  (None, 16, 16, 64)       200768    
 Transpose)                                                      
                                                                 
 conv2d_transpose_16 (Conv2D  (None, 32, 32, 64)       200768    
 Transpose)                                                      
                                                                 
 conv2d_transpose_17 (Conv2D  (None, 64, 64, 64)       200768    
 Transpose)                                                      
                                                                 
 conv2d_2 (Conv2D)           (None, 64, 64, 3)         9411      
                                                                 
=================================================================
Total params: 1,016,451
Trainable params: 1,016,451
Non-trainable params: 0
_________________________________________________________________
{'train_frac': 0.8, 'kernel_size': 7, 'activation': 'relu', 'filters': 64, 'batch_size': 16}
----------------------
err_loo: 1.0003631255767274
…
93/93 - 5s - loss: 2.5462e-04 - loo: 0.0357 - lr: 1.5625e-05 - 5s/epoch - 51ms/step
Epoch 200/200
93/93 - 5s - loss: 2.5391e-04 - loo: 0.0346 - lr: 1.5625e-05 - 5s/epoch - 49ms/step
Total training time: 941.9085943698883 [s]

58/58 [==============================] - 3s 46ms/step
Model: "model_3"
_________________________________________________________________
 Layer (type)                Output Shape              Param #   
=================================================================
 input_4 (InputLayer)        [(None, 2, 1, 1)]         0         
                                                                 
 conv2d_transpose_18 (Conv2D  (None, 2, 2, 64)         3200      
 Transpose)                                                      
                                                                 
 p_re_lu_6 (PReLU)           (None, 2, 2, 64)          256       
                                                                 
 conv2d_transpose_19 (Conv2D  (None, 4, 4, 64)         200768    
 Transpose)                                                      
                                                                 
 p_re_lu_7 (PReLU)           (None, 4, 4, 64)          1024      
                                                                 
 conv2d_transpose_20 (Conv2D  (None, 8, 8, 64)         200768    
 Transpose)                                                      
                                                                 
 p_re_lu_8 (PReLU)           (None, 8, 8, 64)          4096      
                                                                 
 conv2d_transpose_21 (Conv2D  (None, 16, 16, 64)       200768    
 Transpose)                                                      
                                                                 
 p_re_lu_9 (PReLU)           (None, 16, 16, 64)        16384     
                                                                 
 conv2d_transpose_22 (Conv2D  (None, 32, 32, 64)       200768    
 Transpose)                                                      
                                                                 
 p_re_lu_10 (PReLU)          (None, 32, 32, 64)        65536     
                                                                 
 conv2d_transpose_23 (Conv2D  (None, 64, 64, 64)       200768    
 Transpose)                                                      
                                                                 
 p_re_lu_11 (PReLU)          (None, 64, 64, 64)        262144    
                                                                 
 conv2d_3 (Conv2D)           (None, 64, 64, 3)         9411      
                                                                 
=================================================================
Total params: 1,365,891
Trainable params: 1,365,891
Non-trainable params: 0
_________________________________________________________________
{'train_frac': 0.8, 'kernel_size': 7, 'activation': 'prelu', 'filters': 64, 'batch_size': 16}
----------------------
err_loo: 0.9979186558766888
…
93/93 - 5s - loss: 2.6127e-04 - loo: 0.0374 - lr: 3.9063e-06 - 5s/epoch - 55ms/step
Epoch 200/200
93/93 - 5s - loss: 2.6129e-04 - loo: 0.0382 - lr: 3.9063e-06 - 5s/epoch - 55ms/step
Total training time: 1032.2329967021942 [s]

58/58 [==============================] - 3s 47ms/step
Model: "model_4"
_________________________________________________________________
 Layer (type)                Output Shape              Param #   
=================================================================
 input_5 (InputLayer)        [(None, 2, 1, 1)]         0         
                                                                 
 conv2d_transpose_24 (Conv2D  (None, 2, 2, 72)         3600      
 Transpose)                                                      
                                                                 
 conv2d_transpose_25 (Conv2D  (None, 4, 4, 72)         254088    
 Transpose)                                                      
                                                                 
 conv2d_transpose_26 (Conv2D  (None, 8, 8, 72)         254088    
 Transpose)                                                      
                                                                 
 conv2d_transpose_27 (Conv2D  (None, 16, 16, 72)       254088    
 Transpose)                                                      
                                                                 
 conv2d_transpose_28 (Conv2D  (None, 32, 32, 72)       254088    
 Transpose)                                                      
                                                                 
 conv2d_transpose_29 (Conv2D  (None, 64, 64, 72)       254088    
 Transpose)                                                      
                                                                 
 conv2d_4 (Conv2D)           (None, 64, 64, 3)         10587     
                                                                 
=================================================================
Total params: 1,284,627
Trainable params: 1,284,627
Non-trainable params: 0
_________________________________________________________________
{'train_frac': 0.8, 'kernel_size': 7, 'activation': 'relu', 'filters': 72, 'batch_size': 16}
----------------------
err_loo: 0.9984162924756104
…
93/93 - 6s - loss: 2.5800e-04 - loo: 0.0378 - lr: 1.5625e-05 - 6s/epoch - 60ms/step
Epoch 200/200
93/93 - 6s - loss: 2.5742e-04 - loo: 0.0367 - lr: 1.5625e-05 - 6s/epoch - 60ms/step
Total training time: 1121.1009752750397 [s]

58/58 [==============================] - 3s 55ms/step
Model: "model_5"
_________________________________________________________________
 Layer (type)                Output Shape              Param #   
=================================================================
 input_6 (InputLayer)        [(None, 2, 1, 1)]         0         
                                                                 
 conv2d_transpose_30 (Conv2D  (None, 2, 2, 72)         3600      
 Transpose)                                                      
                                                                 
 p_re_lu_12 (PReLU)          (None, 2, 2, 72)          288       
                                                                 
 conv2d_transpose_31 (Conv2D  (None, 4, 4, 72)         254088    
 Transpose)                                                      
                                                                 
 p_re_lu_13 (PReLU)          (None, 4, 4, 72)          1152      
                                                                 
 conv2d_transpose_32 (Conv2D  (None, 8, 8, 72)         254088    
 Transpose)                                                      
                                                                 
 p_re_lu_14 (PReLU)          (None, 8, 8, 72)          4608      
                                                                 
 conv2d_transpose_33 (Conv2D  (None, 16, 16, 72)       254088    
 Transpose)                                                      
                                                                 
 p_re_lu_15 (PReLU)          (None, 16, 16, 72)        18432     
                                                                 
 conv2d_transpose_34 (Conv2D  (None, 32, 32, 72)       254088    
 Transpose)                                                      
                                                                 
 p_re_lu_16 (PReLU)          (None, 32, 32, 72)        73728     
                                                                 
 conv2d_transpose_35 (Conv2D  (None, 64, 64, 72)       254088    
 Transpose)                                                      
                                                                 
 p_re_lu_17 (PReLU)          (None, 64, 64, 72)        294912    
                                                                 
 conv2d_5 (Conv2D)           (None, 64, 64, 3)         10587     
                                                                 
=================================================================
Total params: 1,677,747
Trainable params: 1,677,747
Non-trainable params: 0
_________________________________________________________________
{'train_frac': 0.8, 'kernel_size': 7, 'activation': 'prelu', 'filters': 72, 'batch_size': 16}
----------------------
err_loo: 0.9969613437321914
…
93/93 - 4s - loss: 2.6191e-04 - loo: 0.0383 - lr: 3.9063e-06 - 4s/epoch - 42ms/step
Epoch 200/200
93/93 - 4s - loss: 2.6184e-04 - loo: 0.0378 - lr: 3.9063e-06 - 4s/epoch - 42ms/step
Total training time: 774.6254079341888 [s]

58/58 [==============================] - 2s 37ms/step
Model: "model_6"
_________________________________________________________________
 Layer (type)                Output Shape              Param #   
=================================================================
 input_7 (InputLayer)        [(None, 2, 1, 1)]         0         
                                                                 
 conv2d_transpose_36 (Conv2D  (None, 2, 2, 40)         3280      
 Transpose)                                                      
                                                                 
 conv2d_transpose_37 (Conv2D  (None, 4, 4, 40)         129640    
 Transpose)                                                      
                                                                 
 conv2d_transpose_38 (Conv2D  (None, 8, 8, 40)         129640    
 Transpose)                                                      
                                                                 
 conv2d_transpose_39 (Conv2D  (None, 16, 16, 40)       129640    
 Transpose)                                                      
                                                                 
 conv2d_transpose_40 (Conv2D  (None, 32, 32, 40)       129640    
 Transpose)                                                      
                                                                 
 conv2d_transpose_41 (Conv2D  (None, 64, 64, 40)       129640    
 Transpose)                                                      
                                                                 
 conv2d_6 (Conv2D)           (None, 64, 64, 3)         9723      
                                                                 
=================================================================
Total params: 661,203
Trainable params: 661,203
Non-trainable params: 0
_________________________________________________________________
{'train_frac': 0.8, 'kernel_size': 9, 'activation': 'relu', 'filters': 40, 'batch_size': 16}
----------------------
err_loo: 0.9990391182155655
…
93/93 - 4s - loss: 2.1592e-04 - loo: 0.0348 - lr: 1.5625e-05 - 4s/epoch - 47ms/step
Epoch 200/200
93/93 - 4s - loss: 2.1476e-04 - loo: 0.0334 - lr: 1.5625e-05 - 4s/epoch - 47ms/step
Total training time: 873.0797855854034 [s]

58/58 [==============================] - 3s 43ms/step
Model: "model_7"
_________________________________________________________________
 Layer (type)                Output Shape              Param #   
=================================================================
 input_8 (InputLayer)        [(None, 2, 1, 1)]         0         
                                                                 
 conv2d_transpose_42 (Conv2D  (None, 2, 2, 40)         3280      
 Transpose)                                                      
                                                                 
 p_re_lu_18 (PReLU)          (None, 2, 2, 40)          160       
                                                                 
 conv2d_transpose_43 (Conv2D  (None, 4, 4, 40)         129640    
 Transpose)                                                      
                                                                 
 p_re_lu_19 (PReLU)          (None, 4, 4, 40)          640       
                                                                 
 conv2d_transpose_44 (Conv2D  (None, 8, 8, 40)         129640    
 Transpose)                                                      
                                                                 
 p_re_lu_20 (PReLU)          (None, 8, 8, 40)          2560      
                                                                 
 conv2d_transpose_45 (Conv2D  (None, 16, 16, 40)       129640    
 Transpose)                                                      
                                                                 
 p_re_lu_21 (PReLU)          (None, 16, 16, 40)        10240     
                                                                 
 conv2d_transpose_46 (Conv2D  (None, 32, 32, 40)       129640    
 Transpose)                                                      
                                                                 
 p_re_lu_22 (PReLU)          (None, 32, 32, 40)        40960     
                                                                 
 conv2d_transpose_47 (Conv2D  (None, 64, 64, 40)       129640    
 Transpose)                                                      
                                                                 
 p_re_lu_23 (PReLU)          (None, 64, 64, 40)        163840    
                                                                 
 conv2d_7 (Conv2D)           (None, 64, 64, 3)         9723      
                                                                 
=================================================================
Total params: 879,603
Trainable params: 879,603
Non-trainable params: 0
_________________________________________________________________
{'train_frac': 0.8, 'kernel_size': 9, 'activation': 'prelu', 'filters': 40, 'batch_size': 16}
----------------------
err_loo: 0.9976783189733368
…
93/93 - 6s - loss: 2.2675e-04 - loo: 0.0449 - lr: 7.8125e-06 - 6s/epoch - 61ms/step
Epoch 200/200
93/93 - 6s - loss: 2.2671e-04 - loo: 0.0442 - lr: 7.8125e-06 - 6s/epoch - 61ms/step
Total training time: 1146.0281047821045 [s]

58/58 [==============================] - 3s 51ms/step
Model: "model_8"
_________________________________________________________________
 Layer (type)                Output Shape              Param #   
=================================================================
 input_9 (InputLayer)        [(None, 2, 1, 1)]         0         
                                                                 
 conv2d_transpose_48 (Conv2D  (None, 2, 2, 64)         5248      
 Transpose)                                                      
                                                                 
 conv2d_transpose_49 (Conv2D  (None, 4, 4, 64)         331840    
 Transpose)                                                      
                                                                 
 conv2d_transpose_50 (Conv2D  (None, 8, 8, 64)         331840    
 Transpose)                                                      
                                                                 
 conv2d_transpose_51 (Conv2D  (None, 16, 16, 64)       331840    
 Transpose)                                                      
                                                                 
 conv2d_transpose_52 (Conv2D  (None, 32, 32, 64)       331840    
 Transpose)                                                      
                                                                 
 conv2d_transpose_53 (Conv2D  (None, 64, 64, 64)       331840    
 Transpose)                                                      
                                                                 
 conv2d_8 (Conv2D)           (None, 64, 64, 3)         15555     
                                                                 
=================================================================
Total params: 1,680,003
Trainable params: 1,680,003
Non-trainable params: 0
_________________________________________________________________
{'train_frac': 0.8, 'kernel_size': 9, 'activation': 'relu', 'filters': 64, 'batch_size': 16}
----------------------
err_loo: 0.9985986533722838
…
93/93 - 6s - loss: 2.4945e-04 - loo: 0.0437 - lr: 7.8125e-06 - 6s/epoch - 67ms/step
Epoch 200/200
93/93 - 6s - loss: 2.4890e-04 - loo: 0.0442 - lr: 7.8125e-06 - 6s/epoch - 67ms/step
Total training time: 1249.4793322086334 [s]

58/58 [==============================] - 4s 61ms/step
Model: "model_9"
_________________________________________________________________
 Layer (type)                Output Shape              Param #   
=================================================================
 input_10 (InputLayer)       [(None, 2, 1, 1)]         0         
                                                                 
 conv2d_transpose_54 (Conv2D  (None, 2, 2, 64)         5248      
 Transpose)                                                      
                                                                 
 p_re_lu_24 (PReLU)          (None, 2, 2, 64)          256       
                                                                 
 conv2d_transpose_55 (Conv2D  (None, 4, 4, 64)         331840    
 Transpose)                                                      
                                                                 
 p_re_lu_25 (PReLU)          (None, 4, 4, 64)          1024      
                                                                 
 conv2d_transpose_56 (Conv2D  (None, 8, 8, 64)         331840    
 Transpose)                                                      
                                                                 
 p_re_lu_26 (PReLU)          (None, 8, 8, 64)          4096      
                                                                 
 conv2d_transpose_57 (Conv2D  (None, 16, 16, 64)       331840    
 Transpose)                                                      
                                                                 
 p_re_lu_27 (PReLU)          (None, 16, 16, 64)        16384     
                                                                 
 conv2d_transpose_58 (Conv2D  (None, 32, 32, 64)       331840    
 Transpose)                                                      
                                                                 
 p_re_lu_28 (PReLU)          (None, 32, 32, 64)        65536     
                                                                 
 conv2d_transpose_59 (Conv2D  (None, 64, 64, 64)       331840    
 Transpose)                                                      
                                                                 
 p_re_lu_29 (PReLU)          (None, 64, 64, 64)        262144    
                                                                 
 conv2d_9 (Conv2D)           (None, 64, 64, 3)         15555     
                                                                 
=================================================================
Total params: 2,029,443
Trainable params: 2,029,443
Non-trainable params: 0
_________________________________________________________________
{'train_frac': 0.8, 'kernel_size': 9, 'activation': 'prelu', 'filters': 64, 'batch_size': 16}
----------------------
err_loo: 0.9967167066596267
…
93/93 - 7s - loss: 2.6053e-04 - loo: 0.0401 - lr: 7.8125e-06 - 7s/epoch - 74ms/step
Epoch 200/200
93/93 - 7s - loss: 2.6043e-04 - loo: 0.0404 - lr: 7.8125e-06 - 7s/epoch - 75ms/step
Total training time: 1393.273452758789 [s]

58/58 [==============================] - 4s 62ms/step
Model: "model_10"
_________________________________________________________________
 Layer (type)                Output Shape              Param #   
=================================================================
 input_11 (InputLayer)       [(None, 2, 1, 1)]         0         
                                                                 
 conv2d_transpose_60 (Conv2D  (None, 2, 2, 72)         5904      
 Transpose)                                                      
                                                                 
 conv2d_transpose_61 (Conv2D  (None, 4, 4, 72)         419976    
 Transpose)                                                      
                                                                 
 conv2d_transpose_62 (Conv2D  (None, 8, 8, 72)         419976    
 Transpose)                                                      
                                                                 
 conv2d_transpose_63 (Conv2D  (None, 16, 16, 72)       419976    
 Transpose)                                                      
                                                                 
 conv2d_transpose_64 (Conv2D  (None, 32, 32, 72)       419976    
 Transpose)                                                      
                                                                 
 conv2d_transpose_65 (Conv2D  (None, 64, 64, 72)       419976    
 Transpose)                                                      
                                                                 
 conv2d_10 (Conv2D)          (None, 64, 64, 3)         17499     
                                                                 
=================================================================
Total params: 2,123,283
Trainable params: 2,123,283
Non-trainable params: 0
_________________________________________________________________
{'train_frac': 0.8, 'kernel_size': 9, 'activation': 'relu', 'filters': 72, 'batch_size': 16}
----------------------
err_loo: 0.9974459716807735
…
93/93 - 8s - loss: 3.7722e-05 - loo: 0.0269 - lr: 7.8125e-06 - 8s/epoch - 81ms/step
Epoch 200/200
93/93 - 8s - loss: 3.7547e-05 - loo: 0.0263 - lr: 3.9063e-06 - 8s/epoch - 81ms/step
Total training time: 1508.9713943004608 [s]

58/58 [==============================] - 4s 73ms/step
Model: "model_11"
_________________________________________________________________
 Layer (type)                Output Shape              Param #   
=================================================================
 input_12 (InputLayer)       [(None, 2, 1, 1)]         0         
                                                                 
 conv2d_transpose_66 (Conv2D  (None, 2, 2, 72)         5904      
 Transpose)                                                      
                                                                 
 p_re_lu_30 (PReLU)          (None, 2, 2, 72)          288       
                                                                 
 conv2d_transpose_67 (Conv2D  (None, 4, 4, 72)         419976    
 Transpose)                                                      
                                                                 
 p_re_lu_31 (PReLU)          (None, 4, 4, 72)          1152      
                                                                 
 conv2d_transpose_68 (Conv2D  (None, 8, 8, 72)         419976    
 Transpose)                                                      
                                                                 
 p_re_lu_32 (PReLU)          (None, 8, 8, 72)          4608      
                                                                 
 conv2d_transpose_69 (Conv2D  (None, 16, 16, 72)       419976    
 Transpose)                                                      
                                                                 
 p_re_lu_33 (PReLU)          (None, 16, 16, 72)        18432     
                                                                 
 conv2d_transpose_70 (Conv2D  (None, 32, 32, 72)       419976    
 Transpose)                                                      
                                                                 
 p_re_lu_34 (PReLU)          (None, 32, 32, 72)        73728     
                                                                 
 conv2d_transpose_71 (Conv2D  (None, 64, 64, 72)       419976    
 Transpose)                                                      
                                                                 
 p_re_lu_35 (PReLU)          (None, 64, 64, 72)        294912    
                                                                 
 conv2d_11 (Conv2D)          (None, 64, 64, 3)         17499     
                                                                 
=================================================================
Total params: 2,516,403
Trainable params: 2,516,403
Non-trainable params: 0
_________________________________________________________________
{'train_frac': 0.8, 'kernel_size': 9, 'activation': 'prelu', 'filters': 72, 'batch_size': 16}
----------------------
err_loo: 0.9998124785968362
…
93/93 - 5s - loss: 0.0035 - loo: 0.3889 - lr: 9.7656e-07 - 5s/epoch - 53ms/step
Epoch 200/200
93/93 - 5s - loss: 0.0035 - loo: 0.3825 - lr: 9.7656e-07 - 5s/epoch - 53ms/step
Total training time: 995.3662059307098 [s]

58/58 [==============================] - 3s 46ms/step
Model: "model_12"
_________________________________________________________________
 Layer (type)                Output Shape              Param #   
=================================================================
 input_13 (InputLayer)       [(None, 2, 1, 1)]         0         
                                                                 
 conv2d_transpose_72 (Conv2D  (None, 2, 2, 40)         4880      
 Transpose)                                                      
                                                                 
 conv2d_transpose_73 (Conv2D  (None, 4, 4, 40)         193640    
 Transpose)                                                      
                                                                 
 conv2d_transpose_74 (Conv2D  (None, 8, 8, 40)         193640    
 Transpose)                                                      
                                                                 
 conv2d_transpose_75 (Conv2D  (None, 16, 16, 40)       193640    
 Transpose)                                                      
                                                                 
 conv2d_transpose_76 (Conv2D  (None, 32, 32, 40)       193640    
 Transpose)                                                      
                                                                 
 conv2d_transpose_77 (Conv2D  (None, 64, 64, 40)       193640    
 Transpose)                                                      
                                                                 
 conv2d_12 (Conv2D)          (None, 64, 64, 3)         14523     
                                                                 
=================================================================
Total params: 987,603
Trainable params: 987,603
Non-trainable params: 0
_________________________________________________________________
{'train_frac': 0.8, 'kernel_size': 11, 'activation': 'relu', 'filters': 40, 'batch_size': 16}
----------------------
err_loo: 1.0027123365521518
…
93/93 - 6s - loss: 2.6030e-04 - loo: 0.0346 - lr: 9.7656e-07 - 6s/epoch - 59ms/step
Epoch 200/200
93/93 - 6s - loss: 2.6031e-04 - loo: 0.0348 - lr: 9.7656e-07 - 6s/epoch - 59ms/step
Total training time: 1103.6243908405304 [s]

58/58 [==============================] - 3s 52ms/step
Model: "model_13"
_________________________________________________________________
 Layer (type)                Output Shape              Param #   
=================================================================
 input_14 (InputLayer)       [(None, 2, 1, 1)]         0         
                                                                 
 conv2d_transpose_78 (Conv2D  (None, 2, 2, 40)         4880      
 Transpose)                                                      
                                                                 
 p_re_lu_36 (PReLU)          (None, 2, 2, 40)          160       
                                                                 
 conv2d_transpose_79 (Conv2D  (None, 4, 4, 40)         193640    
 Transpose)                                                      
                                                                 
 p_re_lu_37 (PReLU)          (None, 4, 4, 40)          640       
                                                                 
 conv2d_transpose_80 (Conv2D  (None, 8, 8, 40)         193640    
 Transpose)                                                      
                                                                 
 p_re_lu_38 (PReLU)          (None, 8, 8, 40)          2560      
                                                                 
 conv2d_transpose_81 (Conv2D  (None, 16, 16, 40)       193640    
 Transpose)                                                      
                                                                 
 p_re_lu_39 (PReLU)          (None, 16, 16, 40)        10240     
                                                                 
 conv2d_transpose_82 (Conv2D  (None, 32, 32, 40)       193640    
 Transpose)                                                      
                                                                 
 p_re_lu_40 (PReLU)          (None, 32, 32, 40)        40960     
                                                                 
 conv2d_transpose_83 (Conv2D  (None, 64, 64, 40)       193640    
 Transpose)                                                      
                                                                 
 p_re_lu_41 (PReLU)          (None, 64, 64, 40)        163840    
                                                                 
 conv2d_13 (Conv2D)          (None, 64, 64, 3)         14523     
                                                                 
=================================================================
Total params: 1,206,003
Trainable params: 1,206,003
Non-trainable params: 0
_________________________________________________________________
{'train_frac': 0.8, 'kernel_size': 11, 'activation': 'prelu', 'filters': 40, 'batch_size': 16}
----------------------
err_loo: 0.999217376999908
…
93/93 - 7s - loss: 0.0047 - loo: 0.4640 - lr: 4.8828e-07 - 7s/epoch - 79ms/step
Epoch 200/200
93/93 - 7s - loss: 0.0047 - loo: 0.4678 - lr: 4.8828e-07 - 7s/epoch - 80ms/step
Total training time: 1478.5445084571838 [s]

58/58 [==============================] - 4s 65ms/step
Model: "model_14"
_________________________________________________________________
 Layer (type)                Output Shape              Param #   
=================================================================
 input_15 (InputLayer)       [(None, 2, 1, 1)]         0         
                                                                 
 conv2d_transpose_84 (Conv2D  (None, 2, 2, 64)         7808      
 Transpose)                                                      
                                                                 
 conv2d_transpose_85 (Conv2D  (None, 4, 4, 64)         495680    
 Transpose)                                                      
                                                                 
 conv2d_transpose_86 (Conv2D  (None, 8, 8, 64)         495680    
 Transpose)                                                      
                                                                 
 conv2d_transpose_87 (Conv2D  (None, 16, 16, 64)       495680    
 Transpose)                                                      
                                                                 
 conv2d_transpose_88 (Conv2D  (None, 32, 32, 64)       495680    
 Transpose)                                                      
                                                                 
 conv2d_transpose_89 (Conv2D  (None, 64, 64, 64)       495680    
 Transpose)                                                      
                                                                 
 conv2d_14 (Conv2D)          (None, 64, 64, 3)         23235     
                                                                 
=================================================================
Total params: 2,509,443
Trainable params: 2,509,443
Non-trainable params: 0
_________________________________________________________________
{'train_frac': 0.8, 'kernel_size': 11, 'activation': 'relu', 'filters': 64, 'batch_size': 16}
----------------------
err_loo: 0.9971715852152556
…
93/93 - 8s - loss: 2.3298e-04 - loo: 0.0439 - lr: 1.5625e-05 - 8s/epoch - 86ms/step
Epoch 200/200
93/93 - 8s - loss: 2.3458e-04 - loo: 0.0460 - lr: 1.5625e-05 - 8s/epoch - 87ms/step
Total training time: 1613.1670172214508 [s]

58/58 [==============================] - 5s 76ms/step
Model: "model_15"
_________________________________________________________________
 Layer (type)                Output Shape              Param #   
=================================================================
 input_16 (InputLayer)       [(None, 2, 1, 1)]         0         
                                                                 
 conv2d_transpose_90 (Conv2D  (None, 2, 2, 64)         7808      
 Transpose)                                                      
                                                                 
 p_re_lu_42 (PReLU)          (None, 2, 2, 64)          256       
                                                                 
 conv2d_transpose_91 (Conv2D  (None, 4, 4, 64)         495680    
 Transpose)                                                      
                                                                 
 p_re_lu_43 (PReLU)          (None, 4, 4, 64)          1024      
                                                                 
 conv2d_transpose_92 (Conv2D  (None, 8, 8, 64)         495680    
 Transpose)                                                      
                                                                 
 p_re_lu_44 (PReLU)          (None, 8, 8, 64)          4096      
                                                                 
 conv2d_transpose_93 (Conv2D  (None, 16, 16, 64)       495680    
 Transpose)                                                      
                                                                 
 p_re_lu_45 (PReLU)          (None, 16, 16, 64)        16384     
                                                                 
 conv2d_transpose_94 (Conv2D  (None, 32, 32, 64)       495680    
 Transpose)                                                      
                                                                 
 p_re_lu_46 (PReLU)          (None, 32, 32, 64)        65536     
                                                                 
 conv2d_transpose_95 (Conv2D  (None, 64, 64, 64)       495680    
 Transpose)                                                      
                                                                 
 p_re_lu_47 (PReLU)          (None, 64, 64, 64)        262144    
                                                                 
 conv2d_15 (Conv2D)          (None, 64, 64, 3)         23235     
                                                                 
=================================================================
Total params: 2,858,883
Trainable params: 2,858,883
Non-trainable params: 0
_________________________________________________________________
{'train_frac': 0.8, 'kernel_size': 11, 'activation': 'prelu', 'filters': 64, 'batch_size': 16}
----------------------
err_loo: 0.9936185565641696
…
