…
93/93 - 3s - loss: 2.5882e-04 - loo: 0.0691 - lr: 2.5000e-04 - 3s/epoch - 32ms/step
Epoch 50/50
93/93 - 3s - loss: 2.9033e-04 - loo: 0.0691 - lr: 2.5000e-04 - 3s/epoch - 32ms/step
Total training time: 148.17761850357056 [s]

58/58 [==============================] - 2s 29ms/step
Model: "model"
_________________________________________________________________
 Layer (type)                Output Shape              Param #   
=================================================================
 input_1 (InputLayer)        [(None, 2, 1, 1)]         0         
                                                                 
 conv2d_transpose (Conv2DTra  (None, 2, 2, 40)         2000      
 nspose)                                                         
                                                                 
 conv2d_transpose_1 (Conv2DT  (None, 4, 4, 40)         78440     
 ranspose)                                                       
                                                                 
 conv2d_transpose_2 (Conv2DT  (None, 8, 8, 40)         78440     
 ranspose)                                                       
                                                                 
 conv2d_transpose_3 (Conv2DT  (None, 16, 16, 40)       78440     
 ranspose)                                                       
                                                                 
 conv2d_transpose_4 (Conv2DT  (None, 32, 32, 40)       78440     
 ranspose)                                                       
                                                                 
 conv2d_transpose_5 (Conv2DT  (None, 64, 64, 40)       78440     
 ranspose)                                                       
                                                                 
 conv2d (Conv2D)             (None, 64, 64, 3)         5883      
                                                                 
=================================================================
Total params: 400,083
Trainable params: 400,083
Non-trainable params: 0
_________________________________________________________________
{'train_frac': 0.8, 'kernel_size': 7, 'activation': 'relu', 'filters': 40, 'batch_size': 16}
----------------------
err_loo: 1.0104279911706011
…
93/93 - 3s - loss: 4.1078e-04 - loo: 0.1039 - lr: 0.0010 - 3s/epoch - 37ms/step
Epoch 50/50
93/93 - 3s - loss: 5.0865e-04 - loo: 0.1124 - lr: 0.0010 - 3s/epoch - 37ms/step
Total training time: 171.8290765285492 [s]

58/58 [==============================] - 2s 31ms/step
Model: "model_1"
_________________________________________________________________
 Layer (type)                Output Shape              Param #   
=================================================================
 input_2 (InputLayer)        [(None, 2, 1, 1)]         0         
                                                                 
 conv2d_transpose_6 (Conv2DT  (None, 2, 2, 40)         2000      
 ranspose)                                                       
                                                                 
 p_re_lu (PReLU)             (None, 2, 2, 40)          160       
                                                                 
 conv2d_transpose_7 (Conv2DT  (None, 4, 4, 40)         78440     
 ranspose)                                                       
                                                                 
 p_re_lu_1 (PReLU)           (None, 4, 4, 40)          640       
                                                                 
 conv2d_transpose_8 (Conv2DT  (None, 8, 8, 40)         78440     
 ranspose)                                                       
                                                                 
 p_re_lu_2 (PReLU)           (None, 8, 8, 40)          2560      
                                                                 
 conv2d_transpose_9 (Conv2DT  (None, 16, 16, 40)       78440     
 ranspose)                                                       
                                                                 
 p_re_lu_3 (PReLU)           (None, 16, 16, 40)        10240     
                                                                 
 conv2d_transpose_10 (Conv2D  (None, 32, 32, 40)       78440     
 Transpose)                                                      
                                                                 
 p_re_lu_4 (PReLU)           (None, 32, 32, 40)        40960     
                                                                 
 conv2d_transpose_11 (Conv2D  (None, 64, 64, 40)       78440     
 Transpose)                                                      
                                                                 
 p_re_lu_5 (PReLU)           (None, 64, 64, 40)        163840    
                                                                 
 conv2d_1 (Conv2D)           (None, 64, 64, 3)         5883      
                                                                 
=================================================================
Total params: 618,483
Trainable params: 618,483
Non-trainable params: 0
_________________________________________________________________
{'train_frac': 0.8, 'kernel_size': 7, 'activation': 'prelu', 'filters': 40, 'batch_size': 16}
----------------------
err_loo: 1.0057027523326392
…
93/93 - 4s - loss: 3.2876e-04 - loo: 0.0799 - lr: 0.0010 - 4s/epoch - 45ms/step
Epoch 50/50
93/93 - 4s - loss: 4.1327e-04 - loo: 0.0885 - lr: 0.0010 - 4s/epoch - 46ms/step
Total training time: 212.78751730918884 [s]

58/58 [==============================] - 2s 40ms/step
Model: "model_4"
_________________________________________________________________
 Layer (type)                Output Shape              Param #   
=================================================================
 input_5 (InputLayer)        [(None, 2, 1, 1)]         0         
                                                                 
 conv2d_transpose_24 (Conv2D  (None, 2, 2, 64)         3200      
 Transpose)                                                      
                                                                 
 conv2d_transpose_25 (Conv2D  (None, 4, 4, 64)         200768    
 Transpose)                                                      
                                                                 
 conv2d_transpose_26 (Conv2D  (None, 8, 8, 64)         200768    
 Transpose)                                                      
                                                                 
 conv2d_transpose_27 (Conv2D  (None, 16, 16, 64)       200768    
 Transpose)                                                      
                                                                 
 conv2d_transpose_28 (Conv2D  (None, 32, 32, 64)       200768    
 Transpose)                                                      
                                                                 
 conv2d_transpose_29 (Conv2D  (None, 64, 64, 64)       200768    
 Transpose)                                                      
                                                                 
 conv2d_4 (Conv2D)           (None, 64, 64, 3)         9411      
                                                                 
=================================================================
Total params: 1,016,451
Trainable params: 1,016,451
Non-trainable params: 0
_________________________________________________________________
{'train_frac': 0.8, 'kernel_size': 7, 'activation': 'relu', 'filters': 64, 'batch_size': 16}
----------------------
err_loo: 1.0021609741942268
…
93/93 - 5s - loss: 3.3659e-04 - loo: 0.0872 - lr: 5.0000e-04 - 5s/epoch - 50ms/step
Epoch 50/50
93/93 - 5s - loss: 3.2996e-04 - loo: 0.0850 - lr: 5.0000e-04 - 5s/epoch - 51ms/step
Total training time: 235.07733011245728 [s]

58/58 [==============================] - 3s 47ms/step
Model: "model_5"
_________________________________________________________________
 Layer (type)                Output Shape              Param #   
=================================================================
 input_6 (InputLayer)        [(None, 2, 1, 1)]         0         
                                                                 
 conv2d_transpose_30 (Conv2D  (None, 2, 2, 64)         3200      
 Transpose)                                                      
                                                                 
 p_re_lu_12 (PReLU)          (None, 2, 2, 64)          256       
                                                                 
 conv2d_transpose_31 (Conv2D  (None, 4, 4, 64)         200768    
 Transpose)                                                      
                                                                 
 p_re_lu_13 (PReLU)          (None, 4, 4, 64)          1024      
                                                                 
 conv2d_transpose_32 (Conv2D  (None, 8, 8, 64)         200768    
 Transpose)                                                      
                                                                 
 p_re_lu_14 (PReLU)          (None, 8, 8, 64)          4096      
                                                                 
 conv2d_transpose_33 (Conv2D  (None, 16, 16, 64)       200768    
 Transpose)                                                      
                                                                 
 p_re_lu_15 (PReLU)          (None, 16, 16, 64)        16384     
                                                                 
 conv2d_transpose_34 (Conv2D  (None, 32, 32, 64)       200768    
 Transpose)                                                      
                                                                 
 p_re_lu_16 (PReLU)          (None, 32, 32, 64)        65536     
                                                                 
 conv2d_transpose_35 (Conv2D  (None, 64, 64, 64)       200768    
 Transpose)                                                      
                                                                 
 p_re_lu_17 (PReLU)          (None, 64, 64, 64)        262144    
                                                                 
 conv2d_5 (Conv2D)           (None, 64, 64, 3)         9411      
                                                                 
=================================================================
Total params: 1,365,891
Trainable params: 1,365,891
Non-trainable params: 0
_________________________________________________________________
{'train_frac': 0.8, 'kernel_size': 7, 'activation': 'prelu', 'filters': 64, 'batch_size': 16}
----------------------
err_loo: 1.001467762950269
…
93/93 - 4s - loss: 4.0575e-04 - loo: 0.1093 - lr: 5.0000e-04 - 4s/epoch - 42ms/step
Epoch 50/50
93/93 - 4s - loss: 3.1504e-04 - loo: 0.0949 - lr: 5.0000e-04 - 4s/epoch - 42ms/step
Total training time: 196.58433055877686 [s]

58/58 [==============================] - 2s 37ms/step
Model: "model_8"
_________________________________________________________________
 Layer (type)                Output Shape              Param #   
=================================================================
 input_9 (InputLayer)        [(None, 2, 1, 1)]         0         
                                                                 
 conv2d_transpose_48 (Conv2D  (None, 2, 2, 40)         3280      
 Transpose)                                                      
                                                                 
 conv2d_transpose_49 (Conv2D  (None, 4, 4, 40)         129640    
 Transpose)                                                      
                                                                 
 conv2d_transpose_50 (Conv2D  (None, 8, 8, 40)         129640    
 Transpose)                                                      
                                                                 
 conv2d_transpose_51 (Conv2D  (None, 16, 16, 40)       129640    
 Transpose)                                                      
                                                                 
 conv2d_transpose_52 (Conv2D  (None, 32, 32, 40)       129640    
 Transpose)                                                      
                                                                 
 conv2d_transpose_53 (Conv2D  (None, 64, 64, 40)       129640    
 Transpose)                                                      
                                                                 
 conv2d_8 (Conv2D)           (None, 64, 64, 3)         9723      
                                                                 
=================================================================
Total params: 661,203
Trainable params: 661,203
Non-trainable params: 0
_________________________________________________________________
{'train_frac': 0.8, 'kernel_size': 9, 'activation': 'relu', 'filters': 40, 'batch_size': 16}
----------------------
err_loo: 1.0020427517468455
…
93/93 - 4s - loss: 3.1062e-04 - loo: 0.0681 - lr: 5.0000e-04 - 4s/epoch - 47ms/step
Epoch 50/50
93/93 - 4s - loss: 2.9746e-04 - loo: 0.0583 - lr: 5.0000e-04 - 4s/epoch - 47ms/step
Total training time: 219.89127492904663 [s]

58/58 [==============================] - 3s 42ms/step
Model: "model_9"
_________________________________________________________________
 Layer (type)                Output Shape              Param #   
=================================================================
 input_10 (InputLayer)       [(None, 2, 1, 1)]         0         
                                                                 
 conv2d_transpose_54 (Conv2D  (None, 2, 2, 40)         3280      
 Transpose)                                                      
                                                                 
 p_re_lu_24 (PReLU)          (None, 2, 2, 40)          160       
                                                                 
 conv2d_transpose_55 (Conv2D  (None, 4, 4, 40)         129640    
 Transpose)                                                      
                                                                 
 p_re_lu_25 (PReLU)          (None, 4, 4, 40)          640       
                                                                 
 conv2d_transpose_56 (Conv2D  (None, 8, 8, 40)         129640    
 Transpose)                                                      
                                                                 
 p_re_lu_26 (PReLU)          (None, 8, 8, 40)          2560      
                                                                 
 conv2d_transpose_57 (Conv2D  (None, 16, 16, 40)       129640    
 Transpose)                                                      
                                                                 
 p_re_lu_27 (PReLU)          (None, 16, 16, 40)        10240     
                                                                 
 conv2d_transpose_58 (Conv2D  (None, 32, 32, 40)       129640    
 Transpose)                                                      
                                                                 
 p_re_lu_28 (PReLU)          (None, 32, 32, 40)        40960     
                                                                 
 conv2d_transpose_59 (Conv2D  (None, 64, 64, 40)       129640    
 Transpose)                                                      
                                                                 
 p_re_lu_29 (PReLU)          (None, 64, 64, 40)        163840    
                                                                 
 conv2d_9 (Conv2D)           (None, 64, 64, 3)         9723      
                                                                 
=================================================================
Total params: 879,603
Trainable params: 879,603
Non-trainable params: 0
_________________________________________________________________
{'train_frac': 0.8, 'kernel_size': 9, 'activation': 'prelu', 'filters': 40, 'batch_size': 16}
----------------------
err_loo: 1.0062204135700492
…
93/93 - 6s - loss: 3.4050e-04 - loo: 0.0840 - lr: 0.0010 - 6s/epoch - 62ms/step
Epoch 50/50
93/93 - 6s - loss: 4.6051e-04 - loo: 0.1021 - lr: 0.0010 - 6s/epoch - 61ms/step
Total training time: 287.04041838645935 [s]

58/58 [==============================] - 3s 53ms/step
Model: "model_12"
_________________________________________________________________
 Layer (type)                Output Shape              Param #   
=================================================================
 input_13 (InputLayer)       [(None, 2, 1, 1)]         0         
                                                                 
 conv2d_transpose_72 (Conv2D  (None, 2, 2, 64)         5248      
 Transpose)                                                      
                                                                 
 conv2d_transpose_73 (Conv2D  (None, 4, 4, 64)         331840    
 Transpose)                                                      
                                                                 
 conv2d_transpose_74 (Conv2D  (None, 8, 8, 64)         331840    
 Transpose)                                                      
                                                                 
 conv2d_transpose_75 (Conv2D  (None, 16, 16, 64)       331840    
 Transpose)                                                      
                                                                 
 conv2d_transpose_76 (Conv2D  (None, 32, 32, 64)       331840    
 Transpose)                                                      
                                                                 
 conv2d_transpose_77 (Conv2D  (None, 64, 64, 64)       331840    
 Transpose)                                                      
                                                                 
 conv2d_12 (Conv2D)          (None, 64, 64, 3)         15555     
                                                                 
=================================================================
Total params: 1,680,003
Trainable params: 1,680,003
Non-trainable params: 0
_________________________________________________________________
{'train_frac': 0.8, 'kernel_size': 9, 'activation': 'relu', 'filters': 64, 'batch_size': 16}
----------------------
err_loo: 1.0024197655174563
…
93/93 - 6s - loss: 3.7599e-04 - loo: 0.0879 - lr: 0.0010 - 6s/epoch - 67ms/step
Epoch 50/50
93/93 - 6s - loss: 4.7921e-04 - loo: 0.1107 - lr: 0.0010 - 6s/epoch - 67ms/step
Total training time: 315.32067489624023 [s]

58/58 [==============================] - 4s 61ms/step
Model: "model_13"
_________________________________________________________________
 Layer (type)                Output Shape              Param #   
=================================================================
 input_14 (InputLayer)       [(None, 2, 1, 1)]         0         
                                                                 
 conv2d_transpose_78 (Conv2D  (None, 2, 2, 64)         5248      
 Transpose)                                                      
                                                                 
 p_re_lu_36 (PReLU)          (None, 2, 2, 64)          256       
                                                                 
 conv2d_transpose_79 (Conv2D  (None, 4, 4, 64)         331840    
 Transpose)                                                      
                                                                 
 p_re_lu_37 (PReLU)          (None, 4, 4, 64)          1024      
                                                                 
 conv2d_transpose_80 (Conv2D  (None, 8, 8, 64)         331840    
 Transpose)                                                      
                                                                 
 p_re_lu_38 (PReLU)          (None, 8, 8, 64)          4096      
                                                                 
 conv2d_transpose_81 (Conv2D  (None, 16, 16, 64)       331840    
 Transpose)                                                      
                                                                 
 p_re_lu_39 (PReLU)          (None, 16, 16, 64)        16384     
                                                                 
 conv2d_transpose_82 (Conv2D  (None, 32, 32, 64)       331840    
 Transpose)                                                      
                                                                 
 p_re_lu_40 (PReLU)          (None, 32, 32, 64)        65536     
                                                                 
 conv2d_transpose_83 (Conv2D  (None, 64, 64, 64)       331840    
 Transpose)                                                      
                                                                 
 p_re_lu_41 (PReLU)          (None, 64, 64, 64)        262144    
                                                                 
 conv2d_13 (Conv2D)          (None, 64, 64, 3)         15555     
                                                                 
=================================================================
Total params: 2,029,443
Trainable params: 2,029,443
Non-trainable params: 0
_________________________________________________________________
{'train_frac': 0.8, 'kernel_size': 9, 'activation': 'prelu', 'filters': 64, 'batch_size': 16}
----------------------
err_loo: 1.0010249959922284
…
