…
625/625 - 1s - loss: 5.1262e-07 - loo: 0.0018 - lr: 3.9063e-06 - 892ms/epoch - 1ms/step
Epoch 300/300
625/625 - 1s - loss: 5.1613e-07 - loo: 0.0018 - lr: 3.9063e-06 - 885ms/epoch - 1ms/step
Total training time: 271.0147638320923 [s]

113408/113408 [==============================] - 115s 1ms/step
Model: "model"
_________________________________________________________________
 Layer (type)                Output Shape              Param #   
=================================================================
 input_1 (InputLayer)        [(None, 4)]               0         
                                                                 
 dense (Dense)               (None, 80)                400       
                                                                 
 dense_1 (Dense)             (None, 80)                6480      
                                                                 
 dense_2 (Dense)             (None, 80)                6480      
                                                                 
 dense_3 (Dense)             (None, 80)                6480      
                                                                 
 dense_4 (Dense)             (None, 80)                6480      
                                                                 
 dense_5 (Dense)             (None, 80)                6480      
                                                                 
 dense_6 (Dense)             (None, 80)                6480      
                                                                 
 dense_7 (Dense)             (None, 80)                6480      
                                                                 
 dense_8 (Dense)             (None, 1)                 81        
                                                                 
=================================================================
Total params: 45,841
Trainable params: 45,841
Non-trainable params: 0
_________________________________________________________________
{'xi_kind': 'param', 'depth': 8, 'width': 80, 'activation': 'selu', 'subsample_size': 20000}
----------------------
…
625/625 - 1s - loss: 2.3243e-07 - loo: 0.0013 - lr: 7.8125e-06 - 1s/epoch - 2ms/step
Epoch 300/300
625/625 - 1s - loss: 2.3211e-07 - loo: 0.0013 - lr: 7.8125e-06 - 1s/epoch - 2ms/step
Total training time: 324.9565587043762 [s]

113408/113408 [==============================] - 155s 1ms/step
Model: "model_1"
_________________________________________________________________
 Layer (type)                Output Shape              Param #   
=================================================================
 input_2 (InputLayer)        [(None, 4)]               0         
                                                                 
 dense_9 (Dense)             (None, 80)                400       
                                                                 
 p_re_lu (PReLU)             (None, 80)                80        
                                                                 
 dense_10 (Dense)            (None, 80)                6480      
                                                                 
 p_re_lu_1 (PReLU)           (None, 80)                80        
                                                                 
 dense_11 (Dense)            (None, 80)                6480      
                                                                 
 p_re_lu_2 (PReLU)           (None, 80)                80        
                                                                 
 dense_12 (Dense)            (None, 80)                6480      
                                                                 
 p_re_lu_3 (PReLU)           (None, 80)                80        
                                                                 
 dense_13 (Dense)            (None, 80)                6480      
                                                                 
 p_re_lu_4 (PReLU)           (None, 80)                80        
                                                                 
 dense_14 (Dense)            (None, 80)                6480      
                                                                 
 p_re_lu_5 (PReLU)           (None, 80)                80        
                                                                 
 dense_15 (Dense)            (None, 80)                6480      
                                                                 
 p_re_lu_6 (PReLU)           (None, 80)                80        
                                                                 
 dense_16 (Dense)            (None, 80)                6480      
                                                                 
 p_re_lu_7 (PReLU)           (None, 80)                80        
                                                                 
 dense_17 (Dense)            (None, 1)                 81        
                                                                 
=================================================================
Total params: 46,481
Trainable params: 46,481
Non-trainable params: 0
_________________________________________________________________
{'xi_kind': 'param', 'depth': 8, 'width': 80, 'activation': 'prelu', 'subsample_size': 20000}
----------------------
…
625/625 - 1s - loss: 3.7674e-07 - loo: 0.0019 - lr: 7.8125e-06 - 708ms/epoch - 1ms/step
Epoch 300/300
625/625 - 1s - loss: 3.7467e-07 - loo: 0.0019 - lr: 7.8125e-06 - 697ms/epoch - 1ms/step
Total training time: 225.6416871547699 [s]

113408/113408 [==============================] - 97s 854us/step
Model: "model_8"
_________________________________________________________________
 Layer (type)                Output Shape              Param #   
=================================================================
 input_9 (InputLayer)        [(None, 4)]               0         
                                                                 
 dense_72 (Dense)            (None, 60)                300       
                                                                 
 dense_73 (Dense)            (None, 60)                3660      
                                                                 
 dense_74 (Dense)            (None, 60)                3660      
                                                                 
 dense_75 (Dense)            (None, 60)                3660      
                                                                 
 dense_76 (Dense)            (None, 60)                3660      
                                                                 
 dense_77 (Dense)            (None, 60)                3660      
                                                                 
 dense_78 (Dense)            (None, 1)                 61        
                                                                 
=================================================================
Total params: 18,661
Trainable params: 18,661
Non-trainable params: 0
_________________________________________________________________
{'xi_kind': 'physic', 'depth': 6, 'width': 60, 'activation': 'tanh', 'subsample_size': 20000}
----------------------
…
625/625 - 1s - loss: 2.2876e-07 - loo: 0.0014 - lr: 7.8125e-06 - 1s/epoch - 2ms/step
Epoch 300/300
625/625 - 1s - loss: 2.3420e-07 - loo: 0.0014 - lr: 7.8125e-06 - 867ms/epoch - 1ms/step
Total training time: 240.75920796394348 [s]

113408/113408 [==============================] - 95s 838us/step
Model: "model_10"
_________________________________________________________________
 Layer (type)                Output Shape              Param #   
=================================================================
 input_11 (InputLayer)       [(None, 4)]               0         
                                                                 
 dense_86 (Dense)            (None, 70)                350       
                                                                 
 dense_87 (Dense)            (None, 70)                4970      
                                                                 
 dense_88 (Dense)            (None, 70)                4970      
                                                                 
 dense_89 (Dense)            (None, 70)                4970      
                                                                 
 dense_90 (Dense)            (None, 70)                4970      
                                                                 
 dense_91 (Dense)            (None, 70)                4970      
                                                                 
 dense_92 (Dense)            (None, 70)                4970      
                                                                 
 dense_93 (Dense)            (None, 1)                 71        
                                                                 
=================================================================
Total params: 30,241
Trainable params: 30,241
Non-trainable params: 0
_________________________________________________________________
{'xi_kind': 'physic', 'depth': 7, 'width': 70, 'activation': 'tanh', 'subsample_size': 20000}
----------------------
…
113408/113408 [==============================] - 130s 1ms/step
Model: "model_14"
__________________________________________________________________________________________________
 Layer (type)                   Output Shape         Param #     Connected to                     
==================================================================================================
 input_15 (InputLayer)          [(None, 4)]          0           []                               
                                                                                                  
 dense_120 (Dense)              (None, 60)           300         ['input_15[0][0]']               
                                                                                                  
 dense_121 (Dense)              (None, 60)           3660        ['dense_120[0][0]']              
                                                                                                  
 dense_122 (Dense)              (None, 60)           3660        ['dense_121[0][0]']              
                                                                                                  
 dense_123 (Dense)              (None, 60)           3660        ['dense_122[0][0]']              
                                                                                                  
 dense_124 (Dense)              (None, 60)           3660        ['dense_123[0][0]']              
                                                                                                  
 dense_125 (Dense)              (None, 60)           3660        ['dense_124[0][0]']              
                                                                                                  
 dense_126 (Dense)              (None, 2)            122         ['dense_125[0][0]']              
                                                                                                  
 concatenate (Concatenate)      (None, 6)            0           ['input_15[0][0]',               
                                                                  'dense_126[0][0]']              
                                                                                                  
 dense_127 (Dense)              (None, 60)           420         ['concatenate[0][0]']            
                                                                                                  
 dense_128 (Dense)              (None, 60)           3660        ['dense_127[0][0]']              
                                                                                                  
 dense_129 (Dense)              (None, 60)           3660        ['dense_128[0][0]']              
                                                                                                  
 dense_130 (Dense)              (None, 60)           3660        ['dense_129[0][0]']              
                                                                                                  
 dense_131 (Dense)              (None, 60)           3660        ['dense_130[0][0]']              
                                                                                                  
 dense_132 (Dense)              (None, 60)           3660        ['dense_131[0][0]']              
                                                                                                  
 dense_133 (Dense)              (None, 1)            61          ['dense_132[0][0]']              
                                                                                                  
==================================================================================================
Total params: 37,503
Trainable params: 37,503
Non-trainable params: 0
__________________________________________________________________________________________________
…
113408/113408 [==============================] - 131s 1ms/step
Model: "model_15"
__________________________________________________________________________________________________
 Layer (type)                   Output Shape         Param #     Connected to                     
==================================================================================================
 input_16 (InputLayer)          [(None, 4)]          0           []                               
                                                                                                  
 dense_134 (Dense)              (None, 70)           350         ['input_16[0][0]']               
                                                                                                  
 dense_135 (Dense)              (None, 70)           4970        ['dense_134[0][0]']              
                                                                                                  
 dense_136 (Dense)              (None, 70)           4970        ['dense_135[0][0]']              
                                                                                                  
 dense_137 (Dense)              (None, 70)           4970        ['dense_136[0][0]']              
                                                                                                  
 dense_138 (Dense)              (None, 70)           4970        ['dense_137[0][0]']              
                                                                                                  
 dense_139 (Dense)              (None, 70)           4970        ['dense_138[0][0]']              
                                                                                                  
 dense_140 (Dense)              (None, 70)           4970        ['dense_139[0][0]']              
                                                                                                  
 dense_141 (Dense)              (None, 2)            142         ['dense_140[0][0]']              
                                                                                                  
 concatenate_1 (Concatenate)    (None, 6)            0           ['input_16[0][0]',               
                                                                  'dense_141[0][0]']              
                                                                                                  
 dense_142 (Dense)              (None, 70)           490         ['concatenate_1[0][0]']          
                                                                                                  
 dense_143 (Dense)              (None, 70)           4970        ['dense_142[0][0]']              
                                                                                                  
 dense_144 (Dense)              (None, 70)           4970        ['dense_143[0][0]']              
                                                                                                  
 dense_145 (Dense)              (None, 70)           4970        ['dense_144[0][0]']              
                                                                                                  
 dense_146 (Dense)              (None, 70)           4970        ['dense_145[0][0]']              
                                                                                                  
 dense_147 (Dense)              (None, 70)           4970        ['dense_146[0][0]']              
                                                                                                  
 dense_148 (Dense)              (None, 70)           4970        ['dense_147[0][0]']              
                                                                                                  
 dense_149 (Dense)              (None, 1)            71          ['dense_148[0][0]']              
                                                                                                  
==================================================================================================
Total params: 60,693
Trainable params: 60,693
Non-trainable params: 0
__________________________________________________________________________________________________
…
113408/113408 [==============================] - 139s 1ms/step
Model: "model_16"
__________________________________________________________________________________________________
 Layer (type)                   Output Shape         Param #     Connected to                     
==================================================================================================
 input_17 (InputLayer)          [(None, 4)]          0           []                               
                                                                                                  
 dense_150 (Dense)              (None, 80)           400         ['input_17[0][0]']               
                                                                                                  
 dense_151 (Dense)              (None, 80)           6480        ['dense_150[0][0]']              
                                                                                                  
 dense_152 (Dense)              (None, 80)           6480        ['dense_151[0][0]']              
                                                                                                  
 dense_153 (Dense)              (None, 80)           6480        ['dense_152[0][0]']              
                                                                                                  
 dense_154 (Dense)              (None, 80)           6480        ['dense_153[0][0]']              
                                                                                                  
 dense_155 (Dense)              (None, 80)           6480        ['dense_154[0][0]']              
                                                                                                  
 dense_156 (Dense)              (None, 80)           6480        ['dense_155[0][0]']              
                                                                                                  
 dense_157 (Dense)              (None, 80)           6480        ['dense_156[0][0]']              
                                                                                                  
 dense_158 (Dense)              (None, 2)            162         ['dense_157[0][0]']              
                                                                                                  
 concatenate_2 (Concatenate)    (None, 6)            0           ['input_17[0][0]',               
                                                                  'dense_158[0][0]']              
                                                                                                  
 dense_159 (Dense)              (None, 70)           490         ['concatenate_2[0][0]']          
                                                                                                  
 dense_160 (Dense)              (None, 70)           4970        ['dense_159[0][0]']              
                                                                                                  
 dense_161 (Dense)              (None, 70)           4970        ['dense_160[0][0]']              
                                                                                                  
 dense_162 (Dense)              (None, 70)           4970        ['dense_161[0][0]']              
                                                                                                  
 dense_163 (Dense)              (None, 70)           4970        ['dense_162[0][0]']              
                                                                                                  
 dense_164 (Dense)              (None, 70)           4970        ['dense_163[0][0]']              
                                                                                                  
 dense_165 (Dense)              (None, 70)           4970        ['dense_164[0][0]']              
                                                                                                  
 dense_166 (Dense)              (None, 1)            71          ['dense_165[0][0]']              
                                                                                                  
==================================================================================================
Total params: 76,303
Trainable params: 76,303
Non-trainable params: 0
__________________________________________________________________________________________________
…
