…
2022-10-05 13:41:03.843042: I tensorflow/core/platform/cpu_feature_guard.cc:193] This TensorFlow binary is optimized with oneAPI Deep Neural Network Library (oneDNN) to use the following CPU instructions in performance-critical operations:  AVX2 FMA
To enable them in other operations, rebuild TensorFlow with the appropriate compiler flags.
Data size (7577600, 10)
Model: "model"
_________________________________________________________________
 Layer (type)                Output Shape              Param #   
=================================================================
 input_1 (InputLayer)        [(None, 4)]               0         
                                                                 
 dense (Dense)               (None, 100)               500       
                                                                 
 dense_1 (Dense)             (None, 100)               10100     
                                                                 
 dense_2 (Dense)             (None, 100)               10100     
                                                                 
 dense_3 (Dense)             (None, 100)               10100     
                                                                 
 dense_4 (Dense)             (None, 100)               10100     
                                                                 
 dense_5 (Dense)             (None, 100)               10100     
                                                                 
 dense_6 (Dense)             (None, 100)               10100     
                                                                 
 dense_7 (Dense)             (None, 100)               10100     
                                                                 
 dense_8 (Dense)             (None, 100)               10100     
                                                                 
 dense_9 (Dense)             (None, 100)               10100     
                                                                 
 dense_10 (Dense)            (None, 3)                 303       
                                                                 
=================================================================
Total params: 91,703
Trainable params: 91,703
Non-trainable params: 0
_________________________________________________________________
Epoch 1/200
2500/2500 - 9s - loss: 0.0043 - loo: 0.3775 - lr: 0.0010 - 9s/epoch - 4ms/step
Epoch 2/200
2500/2500 - 8s - loss: 0.0018 - loo: 0.3208 - lr: 0.0010 - 8s/epoch - 3ms/step
…
{'xi_kind': 'param', 'depth': 10, 'width': 100, 'activation': 'elu', 'subsample_size': 320000, 'batch_size': 128}
----------------------
err_loo: 0.398522439406341
err_mae: 0.0005027472040712202
err_mse: 0.0015753175209827766
----------------------
Data size (7577600, 10)
Model: "model_1"
_________________________________________________________________
 Layer (type)                Output Shape              Param #   
=================================================================
 input_2 (InputLayer)        [(None, 4)]               0         
                                                                 
 dense_11 (Dense)            (None, 150)               750       
                                                                 
 dense_12 (Dense)            (None, 150)               22650     
                                                                 
 dense_13 (Dense)            (None, 150)               22650     
                                                                 
 dense_14 (Dense)            (None, 150)               22650     
                                                                 
 dense_15 (Dense)            (None, 150)               22650     
                                                                 
 dense_16 (Dense)            (None, 150)               22650     
                                                                 
 dense_17 (Dense)            (None, 150)               22650     
                                                                 
 dense_18 (Dense)            (None, 150)               22650     
                                                                 
 dense_19 (Dense)            (None, 150)               22650     
                                                                 
 dense_20 (Dense)            (None, 3)                 453       
                                                                 
=================================================================
Total params: 182,403
Trainable params: 182,403
Non-trainable params: 0
_________________________________________________________________
Epoch 1/200
2500/2500 - 7s - loss: 0.0059 - loo: 0.2731 - lr: 0.0010 - 7s/epoch - 3ms/step
Epoch 2/200
2500/2500 - 6s - loss: 0.0024 - loo: 0.2266 - lr: 0.0010 - 6s/epoch - 2ms/step
…
{'xi_kind': 'param', 'depth': 9, 'width': 150, 'activation': 'elu', 'subsample_size': 80000, 'batch_size': 32}
----------------------
err_loo: 0.3965240704005342
err_mae: 0.0009300414540901011
err_mse: 0.005501469346836931
----------------------
Data size (7577600, 10)
Model: "model_2"
_________________________________________________________________
 Layer (type)                Output Shape              Param #   
=================================================================
 input_3 (InputLayer)        [(None, 4)]               0         
                                                                 
 dense_21 (Dense)            (None, 120)               600       
                                                                 
 dense_22 (Dense)            (None, 120)               14520     
                                                                 
 dense_23 (Dense)            (None, 120)               14520     
                                                                 
 dense_24 (Dense)            (None, 120)               14520     
                                                                 
 dense_25 (Dense)            (None, 120)               14520     
                                                                 
 dense_26 (Dense)            (None, 120)               14520     
                                                                 
 dense_27 (Dense)            (None, 120)               14520     
                                                                 
 dense_28 (Dense)            (None, 120)               14520     
                                                                 
 dense_29 (Dense)            (None, 120)               14520     
                                                                 
 dense_30 (Dense)            (None, 120)               14520     
                                                                 
 dense_31 (Dense)            (None, 3)                 363       
                                                                 
=================================================================
Total params: 131,643
Trainable params: 131,643
Non-trainable params: 0
_________________________________________________________________
Epoch 1/200
2500/2500 - 6s - loss: 0.0054 - loo: 0.2730 - lr: 0.0010 - 6s/epoch - 2ms/step
Epoch 2/200
2500/2500 - 5s - loss: 0.0023 - loo: 0.2254 - lr: 0.0010 - 5s/epoch - 2ms/step
…
{'xi_kind': 'param', 'depth': 10, 'width': 120, 'activation': 'elu', 'subsample_size': 80000, 'batch_size': 32}
----------------------
err_loo: 0.5135465429943343
err_mae: 0.0011369139467052442
err_mse: 0.005613543023655384
----------------------
Data size (7577600, 10)
Model: "model_3"
_________________________________________________________________
 Layer (type)                Output Shape              Param #   
=================================================================
 input_4 (InputLayer)        [(None, 5)]               0         
                                                                 
 dense_32 (Dense)            (None, 100)               600       
                                                                 
 dense_33 (Dense)            (None, 100)               10100     
                                                                 
 dense_34 (Dense)            (None, 100)               10100     
                                                                 
 dense_35 (Dense)            (None, 100)               10100     
                                                                 
 dense_36 (Dense)            (None, 100)               10100     
                                                                 
 dense_37 (Dense)            (None, 100)               10100     
                                                                 
 dense_38 (Dense)            (None, 100)               10100     
                                                                 
 dense_39 (Dense)            (None, 100)               10100     
                                                                 
 dense_40 (Dense)            (None, 100)               10100     
                                                                 
 dense_41 (Dense)            (None, 100)               10100     
                                                                 
 dense_42 (Dense)            (None, 3)                 303       
                                                                 
=================================================================
Total params: 91,803
Trainable params: 91,803
Non-trainable params: 0
_________________________________________________________________
Epoch 1/200
2500/2500 - 5s - loss: 0.0035 - loo: 0.2090 - lr: 0.0010 - 5s/epoch - 2ms/step
Epoch 2/200
2500/2500 - 5s - loss: 7.9673e-04 - loo: 0.1240 - lr: 0.0010 - 5s/epoch - 2ms/step
…
{'xi_kind': 'physic', 'depth': 10, 'width': 100, 'activation': 'elu', 'subsample_size': 80000, 'batch_size': 32}
----------------------
err_loo: 1.0543341527388745
err_mae: 0.0010526610207855244
err_mse: 0.011566380315592215
----------------------
Data size (7577600, 10)
Model: "model_4"
_________________________________________________________________
 Layer (type)                Output Shape              Param #   
=================================================================
 input_5 (InputLayer)        [(None, 5)]               0         
                                                                 
 dense_43 (Dense)            (None, 90)                540       
                                                                 
 dense_44 (Dense)            (None, 90)                8190      
                                                                 
 dense_45 (Dense)            (None, 90)                8190      
                                                                 
 dense_46 (Dense)            (None, 90)                8190      
                                                                 
 dense_47 (Dense)            (None, 90)                8190      
                                                                 
 dense_48 (Dense)            (None, 90)                8190      
                                                                 
 dense_49 (Dense)            (None, 90)                8190      
                                                                 
 dense_50 (Dense)            (None, 90)                8190      
                                                                 
 dense_51 (Dense)            (None, 90)                8190      
                                                                 
 dense_52 (Dense)            (None, 3)                 273       
                                                                 
=================================================================
Total params: 66,333
Trainable params: 66,333
Non-trainable params: 0
_________________________________________________________________
Epoch 1/200
2500/2500 - 5s - loss: 0.0038 - loo: 0.2218 - lr: 0.0010 - 5s/epoch - 2ms/step
Epoch 2/200
2500/2500 - 4s - loss: 9.1050e-04 - loo: 0.1306 - lr: 0.0010 - 4s/epoch - 2ms/step
…
