…
6/6 - 0s - loss: 3.0700e-06 - loo: 0.0271 - lr: 5.0000e-04 - 142ms/epoch - 24ms/step
Epoch 300/300
6/6 - 0s - loss: 3.1664e-06 - loo: 0.0275 - lr: 5.0000e-04 - 145ms/epoch - 24ms/step
Total training time: 45.5528404712677 [s]

8/8 [==============================] - 0s 14ms/step
Model: "model"
_________________________________________________________________
 Layer (type)                Output Shape              Param #   
=================================================================
 input_1 (InputLayer)        [(None, 2, 1, 1)]         0         
                                                                 
 conv2d_transpose (Conv2DTra  (None, 2, 2, 32)         832       
 nspose)                                                         
                                                                 
 conv2d_transpose_1 (Conv2DT  (None, 4, 4, 32)         25632     
 ranspose)                                                       
                                                                 
 conv2d_transpose_2 (Conv2DT  (None, 8, 8, 32)         25632     
 ranspose)                                                       
                                                                 
 conv2d_transpose_3 (Conv2DT  (None, 16, 16, 32)       25632     
 ranspose)                                                       
                                                                 
 conv2d_transpose_4 (Conv2DT  (None, 32, 32, 32)       25632     
 ranspose)                                                       
                                                                 
 conv2d_transpose_5 (Conv2DT  (None, 64, 64, 32)       25632     
 ranspose)                                                       
                                                                 
 conv2d (Conv2D)             (None, 64, 64, 1)         801       
                                                                 
=================================================================
Total params: 129,793
Trainable params: 129,793
Non-trainable params: 0
_________________________________________________________________
{'subsample_size': 180, 'filters': 32, 'kernel_size': 5, 'activation': 'relu', 'batch_size': 32}
----------------------
err_loo: 0.03168712666552469
…
6/6 - 0s - loss: 3.4963e-06 - loo: 0.0328 - lr: 1.2500e-04 - 143ms/epoch - 24ms/step
Epoch 300/300
6/6 - 0s - loss: 3.4999e-06 - loo: 0.0323 - lr: 1.2500e-04 - 143ms/epoch - 24ms/step
Total training time: 46.10723948478699 [s]

8/8 [==============================] - 0s 17ms/step
Model: "model_3"
_________________________________________________________________
 Layer (type)                Output Shape              Param #   
=================================================================
 input_4 (InputLayer)        [(None, 2, 1, 1)]         0         
                                                                 
 conv2d_transpose_18 (Conv2D  (None, 2, 2, 32)         832       
 Transpose)                                                      
                                                                 
 p_re_lu (PReLU)             (None, 2, 2, 32)          128       
                                                                 
 conv2d_transpose_19 (Conv2D  (None, 4, 4, 32)         25632     
 Transpose)                                                      
                                                                 
 p_re_lu_1 (PReLU)           (None, 4, 4, 32)          512       
                                                                 
 conv2d_transpose_20 (Conv2D  (None, 8, 8, 32)         25632     
 Transpose)                                                      
                                                                 
 p_re_lu_2 (PReLU)           (None, 8, 8, 32)          2048      
                                                                 
 conv2d_transpose_21 (Conv2D  (None, 16, 16, 32)       25632     
 Transpose)                                                      
                                                                 
 p_re_lu_3 (PReLU)           (None, 16, 16, 32)        8192      
                                                                 
 conv2d_transpose_22 (Conv2D  (None, 32, 32, 32)       25632     
 Transpose)                                                      
                                                                 
 p_re_lu_4 (PReLU)           (None, 32, 32, 32)        32768     
                                                                 
 conv2d_transpose_23 (Conv2D  (None, 64, 64, 32)       25632     
 Transpose)                                                      
                                                                 
 p_re_lu_5 (PReLU)           (None, 64, 64, 32)        131072    
                                                                 
 conv2d_3 (Conv2D)           (None, 64, 64, 1)         801       
                                                                 
=================================================================
Total params: 304,513
Trainable params: 304,513
Non-trainable params: 0
_________________________________________________________________
{'subsample_size': 180, 'filters': 32, 'kernel_size': 5, 'activation': 'prelu', 'batch_size': 32}
----------------------
err_loo: 0.034562320619038786
…
6/6 - 0s - loss: 1.9424e-05 - loo: 0.0405 - lr: 2.5000e-04 - 103ms/epoch - 17ms/step
Epoch 300/300
6/6 - 0s - loss: 1.9436e-05 - loo: 0.0408 - lr: 2.5000e-04 - 107ms/epoch - 18ms/step
Total training time: 33.21140456199646 [s]

8/8 [==============================] - 0s 10ms/step
Model: "model_4"
_________________________________________________________________
 Layer (type)                Output Shape              Param #   
=================================================================
 input_5 (InputLayer)        [(None, 2, 1, 1)]         0         
                                                                 
 conv2d_transpose_24 (Conv2D  (None, 2, 2, 16)         160       
 Transpose)                                                      
                                                                 
 p_re_lu_6 (PReLU)           (None, 2, 2, 16)          64        
                                                                 
 conv2d_transpose_25 (Conv2D  (None, 4, 4, 16)         2320      
 Transpose)                                                      
                                                                 
 p_re_lu_7 (PReLU)           (None, 4, 4, 16)          256       
                                                                 
 conv2d_transpose_26 (Conv2D  (None, 8, 8, 16)         2320      
 Transpose)                                                      
                                                                 
 p_re_lu_8 (PReLU)           (None, 8, 8, 16)          1024      
                                                                 
 conv2d_transpose_27 (Conv2D  (None, 16, 16, 16)       2320      
 Transpose)                                                      
                                                                 
 p_re_lu_9 (PReLU)           (None, 16, 16, 16)        4096      
                                                                 
 conv2d_transpose_28 (Conv2D  (None, 32, 32, 16)       2320      
 Transpose)                                                      
                                                                 
 p_re_lu_10 (PReLU)          (None, 32, 32, 16)        16384     
                                                                 
 conv2d_transpose_29 (Conv2D  (None, 64, 64, 16)       2320      
 Transpose)                                                      
                                                                 
 p_re_lu_11 (PReLU)          (None, 64, 64, 16)        65536     
                                                                 
 conv2d_4 (Conv2D)           (None, 64, 64, 1)         145       
                                                                 
=================================================================
Total params: 99,265
Trainable params: 99,265
Non-trainable params: 0
_________________________________________________________________
{'subsample_size': 180, 'filters': 16, 'kernel_size': 3, 'activation': 'prelu', 'batch_size': 32}
----------------------
err_loo: 0.046196470050279326
…
6/6 - 0s - loss: 5.2783e-06 - loo: 0.0303 - lr: 5.0000e-04 - 111ms/epoch - 19ms/step
Epoch 300/300
6/6 - 0s - loss: 5.2449e-06 - loo: 0.0304 - lr: 5.0000e-04 - 108ms/epoch - 18ms/step
Total training time: 36.131224632263184 [s]

8/8 [==============================] - 0s 13ms/step
Model: "model_5"
_________________________________________________________________
 Layer (type)                Output Shape              Param #   
=================================================================
 input_6 (InputLayer)        [(None, 2, 1, 1)]         0         
                                                                 
 conv2d_transpose_30 (Conv2D  (None, 2, 2, 24)         240       
 Transpose)                                                      
                                                                 
 p_re_lu_12 (PReLU)          (None, 2, 2, 24)          96        
                                                                 
 conv2d_transpose_31 (Conv2D  (None, 4, 4, 24)         5208      
 Transpose)                                                      
                                                                 
 p_re_lu_13 (PReLU)          (None, 4, 4, 24)          384       
                                                                 
 conv2d_transpose_32 (Conv2D  (None, 8, 8, 24)         5208      
 Transpose)                                                      
                                                                 
 p_re_lu_14 (PReLU)          (None, 8, 8, 24)          1536      
                                                                 
 conv2d_transpose_33 (Conv2D  (None, 16, 16, 24)       5208      
 Transpose)                                                      
                                                                 
 p_re_lu_15 (PReLU)          (None, 16, 16, 24)        6144      
                                                                 
 conv2d_transpose_34 (Conv2D  (None, 32, 32, 24)       5208      
 Transpose)                                                      
                                                                 
 p_re_lu_16 (PReLU)          (None, 32, 32, 24)        24576     
                                                                 
 conv2d_transpose_35 (Conv2D  (None, 64, 64, 24)       5208      
 Transpose)                                                      
                                                                 
 p_re_lu_17 (PReLU)          (None, 64, 64, 24)        98304     
                                                                 
 conv2d_5 (Conv2D)           (None, 64, 64, 1)         217       
                                                                 
=================================================================
Total params: 157,537
Trainable params: 157,537
Non-trainable params: 0
_________________________________________________________________
{'subsample_size': 180, 'filters': 24, 'kernel_size': 3, 'activation': 'prelu', 'batch_size': 32}
----------------------
err_loo: 0.036916290580443586
…
6/6 - 0s - loss: 3.7160e-06 - loo: 0.0331 - lr: 5.0000e-04 - 122ms/epoch - 20ms/step
Epoch 300/300
6/6 - 0s - loss: 3.6280e-06 - loo: 0.0313 - lr: 5.0000e-04 - 125ms/epoch - 21ms/step
Total training time: 37.224395513534546 [s]

8/8 [==============================] - 0s 15ms/step
Model: "model_6"
_________________________________________________________________
 Layer (type)                Output Shape              Param #   
=================================================================
 input_7 (InputLayer)        [(None, 2, 1, 1)]         0         
                                                                 
 conv2d_transpose_36 (Conv2D  (None, 2, 2, 32)         320       
 Transpose)                                                      
                                                                 
 p_re_lu_18 (PReLU)          (None, 2, 2, 32)          128       
                                                                 
 conv2d_transpose_37 (Conv2D  (None, 4, 4, 32)         9248      
 Transpose)                                                      
                                                                 
 p_re_lu_19 (PReLU)          (None, 4, 4, 32)          512       
                                                                 
 conv2d_transpose_38 (Conv2D  (None, 8, 8, 32)         9248      
 Transpose)                                                      
                                                                 
 p_re_lu_20 (PReLU)          (None, 8, 8, 32)          2048      
                                                                 
 conv2d_transpose_39 (Conv2D  (None, 16, 16, 32)       9248      
 Transpose)                                                      
                                                                 
 p_re_lu_21 (PReLU)          (None, 16, 16, 32)        8192      
                                                                 
 conv2d_transpose_40 (Conv2D  (None, 32, 32, 32)       9248      
 Transpose)                                                      
                                                                 
 p_re_lu_22 (PReLU)          (None, 32, 32, 32)        32768     
                                                                 
 conv2d_transpose_41 (Conv2D  (None, 64, 64, 32)       9248      
 Transpose)                                                      
                                                                 
 p_re_lu_23 (PReLU)          (None, 64, 64, 32)        131072    
                                                                 
 conv2d_6 (Conv2D)           (None, 64, 64, 1)         289       
                                                                 
=================================================================
Total params: 221,569
Trainable params: 221,569
Non-trainable params: 0
_________________________________________________________________
{'subsample_size': 180, 'filters': 32, 'kernel_size': 3, 'activation': 'prelu', 'batch_size': 32}
----------------------
err_loo: 0.03521553904783428
…
6/6 - 0s - loss: 2.8082e-06 - loo: 0.0289 - lr: 5.0000e-04 - 144ms/epoch - 24ms/step
Epoch 300/300
6/6 - 0s - loss: 2.7560e-06 - loo: 0.0289 - lr: 5.0000e-04 - 147ms/epoch - 25ms/step
Total training time: 43.67364525794983 [s]

8/8 [==============================] - 0s 17ms/step
Model: "model_7"
_________________________________________________________________
 Layer (type)                Output Shape              Param #   
=================================================================
 input_8 (InputLayer)        [(None, 2, 1, 1)]         0         
                                                                 
 conv2d_transpose_42 (Conv2D  (None, 2, 2, 40)         400       
 Transpose)                                                      
                                                                 
 p_re_lu_24 (PReLU)          (None, 2, 2, 40)          160       
                                                                 
 conv2d_transpose_43 (Conv2D  (None, 4, 4, 40)         14440     
 Transpose)                                                      
                                                                 
 p_re_lu_25 (PReLU)          (None, 4, 4, 40)          640       
                                                                 
 conv2d_transpose_44 (Conv2D  (None, 8, 8, 40)         14440     
 Transpose)                                                      
                                                                 
 p_re_lu_26 (PReLU)          (None, 8, 8, 40)          2560      
                                                                 
 conv2d_transpose_45 (Conv2D  (None, 16, 16, 40)       14440     
 Transpose)                                                      
                                                                 
 p_re_lu_27 (PReLU)          (None, 16, 16, 40)        10240     
                                                                 
 conv2d_transpose_46 (Conv2D  (None, 32, 32, 40)       14440     
 Transpose)                                                      
                                                                 
 p_re_lu_28 (PReLU)          (None, 32, 32, 40)        40960     
                                                                 
 conv2d_transpose_47 (Conv2D  (None, 64, 64, 40)       14440     
 Transpose)                                                      
                                                                 
 p_re_lu_29 (PReLU)          (None, 64, 64, 40)        163840    
                                                                 
 conv2d_7 (Conv2D)           (None, 64, 64, 1)         361       
                                                                 
=================================================================
Total params: 291,361
Trainable params: 291,361
Non-trainable params: 0
_________________________________________________________________
{'subsample_size': 180, 'filters': 40, 'kernel_size': 3, 'activation': 'prelu', 'batch_size': 32}
----------------------
err_loo: 0.0324079681717993
…
6/6 - 0s - loss: 3.6561e-06 - loo: 0.0331 - lr: 2.5000e-04 - 155ms/epoch - 26ms/step
Epoch 300/300
6/6 - 0s - loss: 3.6637e-06 - loo: 0.0325 - lr: 2.5000e-04 - 158ms/epoch - 26ms/step
Total training time: 47.95324468612671 [s]

8/8 [==============================] - 0s 18ms/step
Model: "model_8"
_________________________________________________________________
 Layer (type)                Output Shape              Param #   
=================================================================
 input_9 (InputLayer)        [(None, 2, 1, 1)]         0         
                                                                 
 conv2d_transpose_48 (Conv2D  (None, 2, 2, 48)         480       
 Transpose)                                                      
                                                                 
 p_re_lu_30 (PReLU)          (None, 2, 2, 48)          192       
                                                                 
 conv2d_transpose_49 (Conv2D  (None, 4, 4, 48)         20784     
 Transpose)                                                      
                                                                 
 p_re_lu_31 (PReLU)          (None, 4, 4, 48)          768       
                                                                 
 conv2d_transpose_50 (Conv2D  (None, 8, 8, 48)         20784     
 Transpose)                                                      
                                                                 
 p_re_lu_32 (PReLU)          (None, 8, 8, 48)          3072      
                                                                 
 conv2d_transpose_51 (Conv2D  (None, 16, 16, 48)       20784     
 Transpose)                                                      
                                                                 
 p_re_lu_33 (PReLU)          (None, 16, 16, 48)        12288     
                                                                 
 conv2d_transpose_52 (Conv2D  (None, 32, 32, 48)       20784     
 Transpose)                                                      
                                                                 
 p_re_lu_34 (PReLU)          (None, 32, 32, 48)        49152     
                                                                 
 conv2d_transpose_53 (Conv2D  (None, 64, 64, 48)       20784     
 Transpose)                                                      
                                                                 
 p_re_lu_35 (PReLU)          (None, 64, 64, 48)        196608    
                                                                 
 conv2d_8 (Conv2D)           (None, 64, 64, 1)         433       
                                                                 
=================================================================
Total params: 366,913
Trainable params: 366,913
Non-trainable params: 0
_________________________________________________________________
{'subsample_size': 180, 'filters': 48, 'kernel_size': 3, 'activation': 'prelu', 'batch_size': 32}
----------------------
err_loo: 0.03489408007185861
…
6/6 - 0s - loss: 1.7771e-06 - loo: 0.0280 - lr: 2.5000e-04 - 202ms/epoch - 34ms/step
Epoch 300/300
6/6 - 0s - loss: 1.7747e-06 - loo: 0.0301 - lr: 2.5000e-04 - 211ms/epoch - 35ms/step
Total training time: 60.594762563705444 [s]

8/8 [==============================] - 0s 22ms/step
Model: "model_9"
_________________________________________________________________
 Layer (type)                Output Shape              Param #   
=================================================================
 input_10 (InputLayer)       [(None, 2, 1, 1)]         0         
                                                                 
 conv2d_transpose_54 (Conv2D  (None, 2, 2, 64)         640       
 Transpose)                                                      
                                                                 
 p_re_lu_36 (PReLU)          (None, 2, 2, 64)          256       
                                                                 
 conv2d_transpose_55 (Conv2D  (None, 4, 4, 64)         36928     
 Transpose)                                                      
                                                                 
 p_re_lu_37 (PReLU)          (None, 4, 4, 64)          1024      
                                                                 
 conv2d_transpose_56 (Conv2D  (None, 8, 8, 64)         36928     
 Transpose)                                                      
                                                                 
 p_re_lu_38 (PReLU)          (None, 8, 8, 64)          4096      
                                                                 
 conv2d_transpose_57 (Conv2D  (None, 16, 16, 64)       36928     
 Transpose)                                                      
                                                                 
 p_re_lu_39 (PReLU)          (None, 16, 16, 64)        16384     
                                                                 
 conv2d_transpose_58 (Conv2D  (None, 32, 32, 64)       36928     
 Transpose)                                                      
                                                                 
 p_re_lu_40 (PReLU)          (None, 32, 32, 64)        65536     
                                                                 
 conv2d_transpose_59 (Conv2D  (None, 64, 64, 64)       36928     
 Transpose)                                                      
                                                                 
 p_re_lu_41 (PReLU)          (None, 64, 64, 64)        262144    
                                                                 
 conv2d_9 (Conv2D)           (None, 64, 64, 1)         577       
                                                                 
=================================================================
Total params: 535,297
Trainable params: 535,297
Non-trainable params: 0
_________________________________________________________________
{'subsample_size': 180, 'filters': 64, 'kernel_size': 3, 'activation': 'prelu', 'batch_size': 32}
----------------------
err_loo: 0.03331643150086184
…
6/6 - 0s - loss: 7.1839e-06 - loo: 0.0318 - lr: 5.0000e-04 - 111ms/epoch - 18ms/step
Epoch 300/300
6/6 - 0s - loss: 6.7118e-06 - loo: 0.0320 - lr: 5.0000e-04 - 120ms/epoch - 20ms/step
Total training time: 35.36430525779724 [s]

8/8 [==============================] - 0s 12ms/step
Model: "model_10"
_________________________________________________________________
 Layer (type)                Output Shape              Param #   
=================================================================
 input_11 (InputLayer)       [(None, 2, 1, 1)]         0         
                                                                 
 conv2d_transpose_60 (Conv2D  (None, 2, 2, 16)         272       
 Transpose)                                                      
                                                                 
 p_re_lu_42 (PReLU)          (None, 2, 2, 16)          64        
                                                                 
 conv2d_transpose_61 (Conv2D  (None, 4, 4, 16)         4112      
 Transpose)                                                      
                                                                 
 p_re_lu_43 (PReLU)          (None, 4, 4, 16)          256       
                                                                 
 conv2d_transpose_62 (Conv2D  (None, 8, 8, 16)         4112      
 Transpose)                                                      
                                                                 
 p_re_lu_44 (PReLU)          (None, 8, 8, 16)          1024      
                                                                 
 conv2d_transpose_63 (Conv2D  (None, 16, 16, 16)       4112      
 Transpose)                                                      
                                                                 
 p_re_lu_45 (PReLU)          (None, 16, 16, 16)        4096      
                                                                 
 conv2d_transpose_64 (Conv2D  (None, 32, 32, 16)       4112      
 Transpose)                                                      
                                                                 
 p_re_lu_46 (PReLU)          (None, 32, 32, 16)        16384     
                                                                 
 conv2d_transpose_65 (Conv2D  (None, 64, 64, 16)       4112      
 Transpose)                                                      
                                                                 
 p_re_lu_47 (PReLU)          (None, 64, 64, 16)        65536     
                                                                 
 conv2d_10 (Conv2D)          (None, 64, 64, 1)         257       
                                                                 
=================================================================
Total params: 108,449
Trainable params: 108,449
Non-trainable params: 0
_________________________________________________________________
{'subsample_size': 180, 'filters': 16, 'kernel_size': 4, 'activation': 'prelu', 'batch_size': 32}
----------------------
err_loo: 0.03641378617208406
…
6/6 - 0s - loss: 4.0259e-06 - loo: 0.0290 - lr: 2.5000e-04 - 130ms/epoch - 22ms/step
Epoch 300/300
6/6 - 0s - loss: 3.6646e-06 - loo: 0.0294 - lr: 2.5000e-04 - 132ms/epoch - 22ms/step
Total training time: 42.16116142272949 [s]

8/8 [==============================] - 0s 15ms/step
Model: "model_11"
_________________________________________________________________
 Layer (type)                Output Shape              Param #   
=================================================================
 input_12 (InputLayer)       [(None, 2, 1, 1)]         0         
                                                                 
 conv2d_transpose_66 (Conv2D  (None, 2, 2, 24)         408       
 Transpose)                                                      
                                                                 
 p_re_lu_48 (PReLU)          (None, 2, 2, 24)          96        
                                                                 
 conv2d_transpose_67 (Conv2D  (None, 4, 4, 24)         9240      
 Transpose)                                                      
                                                                 
 p_re_lu_49 (PReLU)          (None, 4, 4, 24)          384       
                                                                 
 conv2d_transpose_68 (Conv2D  (None, 8, 8, 24)         9240      
 Transpose)                                                      
                                                                 
 p_re_lu_50 (PReLU)          (None, 8, 8, 24)          1536      
                                                                 
 conv2d_transpose_69 (Conv2D  (None, 16, 16, 24)       9240      
 Transpose)                                                      
                                                                 
 p_re_lu_51 (PReLU)          (None, 16, 16, 24)        6144      
                                                                 
 conv2d_transpose_70 (Conv2D  (None, 32, 32, 24)       9240      
 Transpose)                                                      
                                                                 
 p_re_lu_52 (PReLU)          (None, 32, 32, 24)        24576     
                                                                 
 conv2d_transpose_71 (Conv2D  (None, 64, 64, 24)       9240      
 Transpose)                                                      
                                                                 
 p_re_lu_53 (PReLU)          (None, 64, 64, 24)        98304     
                                                                 
 conv2d_11 (Conv2D)          (None, 64, 64, 1)         385       
                                                                 
=================================================================
Total params: 178,033
Trainable params: 178,033
Non-trainable params: 0
_________________________________________________________________
{'subsample_size': 180, 'filters': 24, 'kernel_size': 4, 'activation': 'prelu', 'batch_size': 32}
----------------------
err_loo: 0.03390224789941432
…
6/6 - 0s - loss: 2.9416e-06 - loo: 0.0276 - lr: 5.0000e-04 - 133ms/epoch - 22ms/step
Epoch 300/300
6/6 - 0s - loss: 2.8711e-06 - loo: 0.0290 - lr: 5.0000e-04 - 139ms/epoch - 23ms/step
Total training time: 41.05666995048523 [s]

8/8 [==============================] - 0s 16ms/step
Model: "model_12"
_________________________________________________________________
 Layer (type)                Output Shape              Param #   
=================================================================
 input_13 (InputLayer)       [(None, 2, 1, 1)]         0         
                                                                 
 conv2d_transpose_72 (Conv2D  (None, 2, 2, 32)         544       
 Transpose)                                                      
                                                                 
 p_re_lu_54 (PReLU)          (None, 2, 2, 32)          128       
                                                                 
 conv2d_transpose_73 (Conv2D  (None, 4, 4, 32)         16416     
 Transpose)                                                      
                                                                 
 p_re_lu_55 (PReLU)          (None, 4, 4, 32)          512       
                                                                 
 conv2d_transpose_74 (Conv2D  (None, 8, 8, 32)         16416     
 Transpose)                                                      
                                                                 
 p_re_lu_56 (PReLU)          (None, 8, 8, 32)          2048      
                                                                 
 conv2d_transpose_75 (Conv2D  (None, 16, 16, 32)       16416     
 Transpose)                                                      
                                                                 
 p_re_lu_57 (PReLU)          (None, 16, 16, 32)        8192      
                                                                 
 conv2d_transpose_76 (Conv2D  (None, 32, 32, 32)       16416     
 Transpose)                                                      
                                                                 
 p_re_lu_58 (PReLU)          (None, 32, 32, 32)        32768     
                                                                 
 conv2d_transpose_77 (Conv2D  (None, 64, 64, 32)       16416     
 Transpose)                                                      
                                                                 
 p_re_lu_59 (PReLU)          (None, 64, 64, 32)        131072    
                                                                 
 conv2d_12 (Conv2D)          (None, 64, 64, 1)         513       
                                                                 
=================================================================
Total params: 257,857
Trainable params: 257,857
Non-trainable params: 0
_________________________________________________________________
{'subsample_size': 180, 'filters': 32, 'kernel_size': 4, 'activation': 'prelu', 'batch_size': 32}
----------------------
err_loo: 0.03335276991658474
…
6/6 - 0s - loss: 2.7618e-06 - loo: 0.0286 - lr: 2.5000e-04 - 158ms/epoch - 26ms/step
Epoch 300/300
6/6 - 0s - loss: 2.7810e-06 - loo: 0.0301 - lr: 2.5000e-04 - 173ms/epoch - 29ms/step
Total training time: 49.017650842666626 [s]

8/8 [==============================] - 0s 21ms/step
Model: "model_13"
_________________________________________________________________
 Layer (type)                Output Shape              Param #   
=================================================================
 input_14 (InputLayer)       [(None, 2, 1, 1)]         0         
                                                                 
 conv2d_transpose_78 (Conv2D  (None, 2, 2, 40)         680       
 Transpose)                                                      
                                                                 
 p_re_lu_60 (PReLU)          (None, 2, 2, 40)          160       
                                                                 
 conv2d_transpose_79 (Conv2D  (None, 4, 4, 40)         25640     
 Transpose)                                                      
                                                                 
 p_re_lu_61 (PReLU)          (None, 4, 4, 40)          640       
                                                                 
 conv2d_transpose_80 (Conv2D  (None, 8, 8, 40)         25640     
 Transpose)                                                      
                                                                 
 p_re_lu_62 (PReLU)          (None, 8, 8, 40)          2560      
                                                                 
 conv2d_transpose_81 (Conv2D  (None, 16, 16, 40)       25640     
 Transpose)                                                      
                                                                 
 p_re_lu_63 (PReLU)          (None, 16, 16, 40)        10240     
                                                                 
 conv2d_transpose_82 (Conv2D  (None, 32, 32, 40)       25640     
 Transpose)                                                      
                                                                 
 p_re_lu_64 (PReLU)          (None, 32, 32, 40)        40960     
                                                                 
 conv2d_transpose_83 (Conv2D  (None, 64, 64, 40)       25640     
 Transpose)                                                      
                                                                 
 p_re_lu_65 (PReLU)          (None, 64, 64, 40)        163840    
                                                                 
 conv2d_13 (Conv2D)          (None, 64, 64, 1)         641       
                                                                 
=================================================================
Total params: 347,921
Trainable params: 347,921
Non-trainable params: 0
_________________________________________________________________
{'subsample_size': 180, 'filters': 40, 'kernel_size': 4, 'activation': 'prelu', 'batch_size': 32}
----------------------
err_loo: 0.036870774983577125
…
6/6 - 0s - loss: 1.9936e-06 - loo: 0.0308 - lr: 2.5000e-04 - 184ms/epoch - 31ms/step
Epoch 300/300
6/6 - 0s - loss: 1.9892e-06 - loo: 0.0280 - lr: 2.5000e-04 - 184ms/epoch - 31ms/step
Total training time: 54.347245931625366 [s]

8/8 [==============================] - 0s 20ms/step
Model: "model_14"
_________________________________________________________________
 Layer (type)                Output Shape              Param #   
=================================================================
 input_15 (InputLayer)       [(None, 2, 1, 1)]         0         
                                                                 
 conv2d_transpose_84 (Conv2D  (None, 2, 2, 48)         816       
 Transpose)                                                      
                                                                 
 p_re_lu_66 (PReLU)          (None, 2, 2, 48)          192       
                                                                 
 conv2d_transpose_85 (Conv2D  (None, 4, 4, 48)         36912     
 Transpose)                                                      
                                                                 
 p_re_lu_67 (PReLU)          (None, 4, 4, 48)          768       
                                                                 
 conv2d_transpose_86 (Conv2D  (None, 8, 8, 48)         36912     
 Transpose)                                                      
                                                                 
 p_re_lu_68 (PReLU)          (None, 8, 8, 48)          3072      
                                                                 
 conv2d_transpose_87 (Conv2D  (None, 16, 16, 48)       36912     
 Transpose)                                                      
                                                                 
 p_re_lu_69 (PReLU)          (None, 16, 16, 48)        12288     
                                                                 
 conv2d_transpose_88 (Conv2D  (None, 32, 32, 48)       36912     
 Transpose)                                                      
                                                                 
 p_re_lu_70 (PReLU)          (None, 32, 32, 48)        49152     
                                                                 
 conv2d_transpose_89 (Conv2D  (None, 64, 64, 48)       36912     
 Transpose)                                                      
                                                                 
 p_re_lu_71 (PReLU)          (None, 64, 64, 48)        196608    
                                                                 
 conv2d_14 (Conv2D)          (None, 64, 64, 1)         769       
                                                                 
=================================================================
Total params: 448,225
Trainable params: 448,225
Non-trainable params: 0
_________________________________________________________________
{'subsample_size': 180, 'filters': 48, 'kernel_size': 4, 'activation': 'prelu', 'batch_size': 32}
----------------------
err_loo: 0.03485841041725098
…
6/6 - 0s - loss: 1.4217e-06 - loo: 0.0248 - lr: 1.2500e-04 - 225ms/epoch - 38ms/step
Epoch 300/300
6/6 - 0s - loss: 1.4442e-06 - loo: 0.0237 - lr: 1.2500e-04 - 232ms/epoch - 39ms/step
Total training time: 69.42065167427063 [s]

8/8 [==============================] - 0s 26ms/step
Model: "model_15"
_________________________________________________________________
 Layer (type)                Output Shape              Param #   
=================================================================
 input_16 (InputLayer)       [(None, 2, 1, 1)]         0         
                                                                 
 conv2d_transpose_90 (Conv2D  (None, 2, 2, 64)         1088      
 Transpose)                                                      
                                                                 
 p_re_lu_72 (PReLU)          (None, 2, 2, 64)          256       
                                                                 
 conv2d_transpose_91 (Conv2D  (None, 4, 4, 64)         65600     
 Transpose)                                                      
                                                                 
 p_re_lu_73 (PReLU)          (None, 4, 4, 64)          1024      
                                                                 
 conv2d_transpose_92 (Conv2D  (None, 8, 8, 64)         65600     
 Transpose)                                                      
                                                                 
 p_re_lu_74 (PReLU)          (None, 8, 8, 64)          4096      
                                                                 
 conv2d_transpose_93 (Conv2D  (None, 16, 16, 64)       65600     
 Transpose)                                                      
                                                                 
 p_re_lu_75 (PReLU)          (None, 16, 16, 64)        16384     
                                                                 
 conv2d_transpose_94 (Conv2D  (None, 32, 32, 64)       65600     
 Transpose)                                                      
                                                                 
 p_re_lu_76 (PReLU)          (None, 32, 32, 64)        65536     
                                                                 
 conv2d_transpose_95 (Conv2D  (None, 64, 64, 64)       65600     
 Transpose)                                                      
                                                                 
 p_re_lu_77 (PReLU)          (None, 64, 64, 64)        262144    
                                                                 
 conv2d_15 (Conv2D)          (None, 64, 64, 1)         1025      
                                                                 
=================================================================
Total params: 679,553
Trainable params: 679,553
Non-trainable params: 0
_________________________________________________________________
{'subsample_size': 180, 'filters': 64, 'kernel_size': 4, 'activation': 'prelu', 'batch_size': 32}
----------------------
err_loo: 0.029258219058991276
…
6/6 - 0s - loss: 3.6844e-06 - loo: 0.0300 - lr: 5.0000e-04 - 122ms/epoch - 20ms/step
Epoch 300/300
6/6 - 0s - loss: 3.6438e-06 - loo: 0.0306 - lr: 5.0000e-04 - 127ms/epoch - 21ms/step
Total training time: 39.85122275352478 [s]

8/8 [==============================] - 0s 13ms/step
Model: "model_16"
_________________________________________________________________
 Layer (type)                Output Shape              Param #   
=================================================================
 input_17 (InputLayer)       [(None, 2, 1, 1)]         0         
                                                                 
 conv2d_transpose_96 (Conv2D  (None, 2, 2, 16)         416       
 Transpose)                                                      
                                                                 
 p_re_lu_78 (PReLU)          (None, 2, 2, 16)          64        
                                                                 
 conv2d_transpose_97 (Conv2D  (None, 4, 4, 16)         6416      
 Transpose)                                                      
                                                                 
 p_re_lu_79 (PReLU)          (None, 4, 4, 16)          256       
                                                                 
 conv2d_transpose_98 (Conv2D  (None, 8, 8, 16)         6416      
 Transpose)                                                      
                                                                 
 p_re_lu_80 (PReLU)          (None, 8, 8, 16)          1024      
                                                                 
 conv2d_transpose_99 (Conv2D  (None, 16, 16, 16)       6416      
 Transpose)                                                      
                                                                 
 p_re_lu_81 (PReLU)          (None, 16, 16, 16)        4096      
                                                                 
 conv2d_transpose_100 (Conv2  (None, 32, 32, 16)       6416      
 DTranspose)                                                     
                                                                 
 p_re_lu_82 (PReLU)          (None, 32, 32, 16)        16384     
                                                                 
 conv2d_transpose_101 (Conv2  (None, 64, 64, 16)       6416      
 DTranspose)                                                     
                                                                 
 p_re_lu_83 (PReLU)          (None, 64, 64, 16)        65536     
                                                                 
 conv2d_16 (Conv2D)          (None, 64, 64, 1)         401       
                                                                 
=================================================================
Total params: 120,257
Trainable params: 120,257
Non-trainable params: 0
_________________________________________________________________
{'subsample_size': 180, 'filters': 16, 'kernel_size': 5, 'activation': 'prelu', 'batch_size': 32}
----------------------
err_loo: 0.04066915175240442
…
6/6 - 0s - loss: 4.9563e-06 - loo: 0.0321 - lr: 1.2500e-04 - 157ms/epoch - 26ms/step
Epoch 300/300
6/6 - 0s - loss: 4.9959e-06 - loo: 0.0318 - lr: 1.2500e-04 - 160ms/epoch - 27ms/step
Total training time: 48.743072271347046 [s]

8/8 [==============================] - 0s 16ms/step
Model: "model_17"
_________________________________________________________________
 Layer (type)                Output Shape              Param #   
=================================================================
 input_18 (InputLayer)       [(None, 2, 1, 1)]         0         
                                                                 
 conv2d_transpose_102 (Conv2  (None, 2, 2, 24)         624       
 DTranspose)                                                     
                                                                 
 p_re_lu_84 (PReLU)          (None, 2, 2, 24)          96        
                                                                 
 conv2d_transpose_103 (Conv2  (None, 4, 4, 24)         14424     
 DTranspose)                                                     
                                                                 
 p_re_lu_85 (PReLU)          (None, 4, 4, 24)          384       
                                                                 
 conv2d_transpose_104 (Conv2  (None, 8, 8, 24)         14424     
 DTranspose)                                                     
                                                                 
 p_re_lu_86 (PReLU)          (None, 8, 8, 24)          1536      
                                                                 
 conv2d_transpose_105 (Conv2  (None, 16, 16, 24)       14424     
 DTranspose)                                                     
                                                                 
 p_re_lu_87 (PReLU)          (None, 16, 16, 24)        6144      
                                                                 
 conv2d_transpose_106 (Conv2  (None, 32, 32, 24)       14424     
 DTranspose)                                                     
                                                                 
 p_re_lu_88 (PReLU)          (None, 32, 32, 24)        24576     
                                                                 
 conv2d_transpose_107 (Conv2  (None, 64, 64, 24)       14424     
 DTranspose)                                                     
                                                                 
 p_re_lu_89 (PReLU)          (None, 64, 64, 24)        98304     
                                                                 
 conv2d_17 (Conv2D)          (None, 64, 64, 1)         601       
                                                                 
=================================================================
Total params: 204,385
Trainable params: 204,385
Non-trainable params: 0
_________________________________________________________________
{'subsample_size': 180, 'filters': 24, 'kernel_size': 5, 'activation': 'prelu', 'batch_size': 32}
----------------------
err_loo: 0.03584165608804628
…
6/6 - 0s - loss: 2.0623e-06 - loo: 0.0267 - lr: 2.5000e-04 - 187ms/epoch - 31ms/step
Epoch 300/300
6/6 - 0s - loss: 2.0670e-06 - loo: 0.0284 - lr: 2.5000e-04 - 192ms/epoch - 32ms/step
Total training time: 57.65253686904907 [s]

8/8 [==============================] - 0s 24ms/step
Model: "model_19"
_________________________________________________________________
 Layer (type)                Output Shape              Param #   
=================================================================
 input_20 (InputLayer)       [(None, 2, 1, 1)]         0         
                                                                 
 conv2d_transpose_114 (Conv2  (None, 2, 2, 40)         1040      
 DTranspose)                                                     
                                                                 
 p_re_lu_96 (PReLU)          (None, 2, 2, 40)          160       
                                                                 
 conv2d_transpose_115 (Conv2  (None, 4, 4, 40)         40040     
 DTranspose)                                                     
                                                                 
 p_re_lu_97 (PReLU)          (None, 4, 4, 40)          640       
                                                                 
 conv2d_transpose_116 (Conv2  (None, 8, 8, 40)         40040     
 DTranspose)                                                     
                                                                 
 p_re_lu_98 (PReLU)          (None, 8, 8, 40)          2560      
                                                                 
 conv2d_transpose_117 (Conv2  (None, 16, 16, 40)       40040     
 DTranspose)                                                     
                                                                 
 p_re_lu_99 (PReLU)          (None, 16, 16, 40)        10240     
                                                                 
 conv2d_transpose_118 (Conv2  (None, 32, 32, 40)       40040     
 DTranspose)                                                     
                                                                 
 p_re_lu_100 (PReLU)         (None, 32, 32, 40)        40960     
                                                                 
 conv2d_transpose_119 (Conv2  (None, 64, 64, 40)       40040     
 DTranspose)                                                     
                                                                 
 p_re_lu_101 (PReLU)         (None, 64, 64, 40)        163840    
                                                                 
 conv2d_19 (Conv2D)          (None, 64, 64, 1)         1001      
                                                                 
=================================================================
Total params: 420,641
Trainable params: 420,641
Non-trainable params: 0
_________________________________________________________________
{'subsample_size': 180, 'filters': 40, 'kernel_size': 5, 'activation': 'prelu', 'batch_size': 32}
----------------------
err_loo: 0.033424259334019865
…
6/6 - 0s - loss: 1.7806e-06 - loo: 0.0292 - lr: 2.5000e-04 - 212ms/epoch - 35ms/step
Epoch 300/300
6/6 - 0s - loss: 1.8031e-06 - loo: 0.0278 - lr: 2.5000e-04 - 208ms/epoch - 35ms/step
Total training time: 63.734936237335205 [s]

8/8 [==============================] - 0s 25ms/step
Model: "model_20"
_________________________________________________________________
 Layer (type)                Output Shape              Param #   
=================================================================
 input_21 (InputLayer)       [(None, 2, 1, 1)]         0         
                                                                 
 conv2d_transpose_120 (Conv2  (None, 2, 2, 48)         1248      
 DTranspose)                                                     
                                                                 
 p_re_lu_102 (PReLU)         (None, 2, 2, 48)          192       
                                                                 
 conv2d_transpose_121 (Conv2  (None, 4, 4, 48)         57648     
 DTranspose)                                                     
                                                                 
 p_re_lu_103 (PReLU)         (None, 4, 4, 48)          768       
                                                                 
 conv2d_transpose_122 (Conv2  (None, 8, 8, 48)         57648     
 DTranspose)                                                     
                                                                 
 p_re_lu_104 (PReLU)         (None, 8, 8, 48)          3072      
                                                                 
 conv2d_transpose_123 (Conv2  (None, 16, 16, 48)       57648     
 DTranspose)                                                     
                                                                 
 p_re_lu_105 (PReLU)         (None, 16, 16, 48)        12288     
                                                                 
 conv2d_transpose_124 (Conv2  (None, 32, 32, 48)       57648     
 DTranspose)                                                     
                                                                 
 p_re_lu_106 (PReLU)         (None, 32, 32, 48)        49152     
                                                                 
 conv2d_transpose_125 (Conv2  (None, 64, 64, 48)       57648     
 DTranspose)                                                     
                                                                 
 p_re_lu_107 (PReLU)         (None, 64, 64, 48)        196608    
                                                                 
 conv2d_20 (Conv2D)          (None, 64, 64, 1)         1201      
                                                                 
=================================================================
Total params: 552,769
Trainable params: 552,769
Non-trainable params: 0
_________________________________________________________________
{'subsample_size': 180, 'filters': 48, 'kernel_size': 5, 'activation': 'prelu', 'batch_size': 32}
----------------------
err_loo: 0.03296727797310754
…
6/6 - 0s - loss: 2.2510e-06 - loo: 0.0286 - lr: 1.2500e-04 - 273ms/epoch - 46ms/step
Epoch 300/300
6/6 - 0s - loss: 2.3374e-06 - loo: 0.0286 - lr: 1.2500e-04 - 273ms/epoch - 45ms/step
Total training time: 83.29865312576294 [s]

8/8 [==============================] - 0s 31ms/step
Model: "model_21"
_________________________________________________________________
 Layer (type)                Output Shape              Param #   
=================================================================
 input_22 (InputLayer)       [(None, 2, 1, 1)]         0         
                                                                 
 conv2d_transpose_126 (Conv2  (None, 2, 2, 64)         1664      
 DTranspose)                                                     
                                                                 
 p_re_lu_108 (PReLU)         (None, 2, 2, 64)          256       
                                                                 
 conv2d_transpose_127 (Conv2  (None, 4, 4, 64)         102464    
 DTranspose)                                                     
                                                                 
 p_re_lu_109 (PReLU)         (None, 4, 4, 64)          1024      
                                                                 
 conv2d_transpose_128 (Conv2  (None, 8, 8, 64)         102464    
 DTranspose)                                                     
                                                                 
 p_re_lu_110 (PReLU)         (None, 8, 8, 64)          4096      
                                                                 
 conv2d_transpose_129 (Conv2  (None, 16, 16, 64)       102464    
 DTranspose)                                                     
                                                                 
 p_re_lu_111 (PReLU)         (None, 16, 16, 64)        16384     
                                                                 
 conv2d_transpose_130 (Conv2  (None, 32, 32, 64)       102464    
 DTranspose)                                                     
                                                                 
 p_re_lu_112 (PReLU)         (None, 32, 32, 64)        65536     
                                                                 
 conv2d_transpose_131 (Conv2  (None, 64, 64, 64)       102464    
 DTranspose)                                                     
                                                                 
 p_re_lu_113 (PReLU)         (None, 64, 64, 64)        262144    
                                                                 
 conv2d_21 (Conv2D)          (None, 64, 64, 1)         1601      
                                                                 
=================================================================
Total params: 865,025
Trainable params: 865,025
Non-trainable params: 0
_________________________________________________________________
{'subsample_size': 180, 'filters': 64, 'kernel_size': 5, 'activation': 'prelu', 'batch_size': 32}
----------------------
err_loo: 0.03388973808210298
…
6/6 - 0s - loss: 4.9043e-06 - loo: 0.0300 - lr: 1.2500e-04 - 139ms/epoch - 23ms/step
Epoch 300/300
6/6 - 0s - loss: 4.8148e-06 - loo: 0.0312 - lr: 1.2500e-04 - 149ms/epoch - 25ms/step
Total training time: 44.79021096229553 [s]

8/8 [==============================] - 0s 15ms/step
Model: "model_22"
_________________________________________________________________
 Layer (type)                Output Shape              Param #   
=================================================================
 input_23 (InputLayer)       [(None, 2, 1, 1)]         0         
                                                                 
 conv2d_transpose_132 (Conv2  (None, 2, 2, 16)         592       
 DTranspose)                                                     
                                                                 
 p_re_lu_114 (PReLU)         (None, 2, 2, 16)          64        
                                                                 
 conv2d_transpose_133 (Conv2  (None, 4, 4, 16)         9232      
 DTranspose)                                                     
                                                                 
 p_re_lu_115 (PReLU)         (None, 4, 4, 16)          256       
                                                                 
 conv2d_transpose_134 (Conv2  (None, 8, 8, 16)         9232      
 DTranspose)                                                     
                                                                 
 p_re_lu_116 (PReLU)         (None, 8, 8, 16)          1024      
                                                                 
 conv2d_transpose_135 (Conv2  (None, 16, 16, 16)       9232      
 DTranspose)                                                     
                                                                 
 p_re_lu_117 (PReLU)         (None, 16, 16, 16)        4096      
                                                                 
 conv2d_transpose_136 (Conv2  (None, 32, 32, 16)       9232      
 DTranspose)                                                     
                                                                 
 p_re_lu_118 (PReLU)         (None, 32, 32, 16)        16384     
                                                                 
 conv2d_transpose_137 (Conv2  (None, 64, 64, 16)       9232      
 DTranspose)                                                     
                                                                 
 p_re_lu_119 (PReLU)         (None, 64, 64, 16)        65536     
                                                                 
 conv2d_22 (Conv2D)          (None, 64, 64, 1)         577       
                                                                 
=================================================================
Total params: 134,689
Trainable params: 134,689
Non-trainable params: 0
_________________________________________________________________
{'subsample_size': 180, 'filters': 16, 'kernel_size': 6, 'activation': 'prelu', 'batch_size': 32}
----------------------
err_loo: 0.034363962945465794
…
6/6 - 0s - loss: 3.3488e-06 - loo: 0.0331 - lr: 2.5000e-04 - 178ms/epoch - 30ms/step
Epoch 300/300
6/6 - 0s - loss: 3.3705e-06 - loo: 0.0335 - lr: 2.5000e-04 - 185ms/epoch - 31ms/step
Total training time: 57.14664316177368 [s]

8/8 [==============================] - 0s 19ms/step
Model: "model_23"
_________________________________________________________________
 Layer (type)                Output Shape              Param #   
=================================================================
 input_24 (InputLayer)       [(None, 2, 1, 1)]         0         
                                                                 
 conv2d_transpose_138 (Conv2  (None, 2, 2, 24)         888       
 DTranspose)                                                     
                                                                 
 p_re_lu_120 (PReLU)         (None, 2, 2, 24)          96        
                                                                 
 conv2d_transpose_139 (Conv2  (None, 4, 4, 24)         20760     
 DTranspose)                                                     
                                                                 
 p_re_lu_121 (PReLU)         (None, 4, 4, 24)          384       
                                                                 
 conv2d_transpose_140 (Conv2  (None, 8, 8, 24)         20760     
 DTranspose)                                                     
                                                                 
 p_re_lu_122 (PReLU)         (None, 8, 8, 24)          1536      
                                                                 
 conv2d_transpose_141 (Conv2  (None, 16, 16, 24)       20760     
 DTranspose)                                                     
                                                                 
 p_re_lu_123 (PReLU)         (None, 16, 16, 24)        6144      
                                                                 
 conv2d_transpose_142 (Conv2  (None, 32, 32, 24)       20760     
 DTranspose)                                                     
                                                                 
 p_re_lu_124 (PReLU)         (None, 32, 32, 24)        24576     
                                                                 
 conv2d_transpose_143 (Conv2  (None, 64, 64, 24)       20760     
 DTranspose)                                                     
                                                                 
 p_re_lu_125 (PReLU)         (None, 64, 64, 24)        98304     
                                                                 
 conv2d_23 (Conv2D)          (None, 64, 64, 1)         865       
                                                                 
=================================================================
Total params: 236,593
Trainable params: 236,593
Non-trainable params: 0
_________________________________________________________________
{'subsample_size': 180, 'filters': 24, 'kernel_size': 6, 'activation': 'prelu', 'batch_size': 32}
----------------------
err_loo: 0.03743866941254541
…
6/6 - 0s - loss: 3.4995e-06 - loo: 0.0302 - lr: 2.5000e-04 - 189ms/epoch - 32ms/step
Epoch 300/300
6/6 - 0s - loss: 3.2729e-06 - loo: 0.0296 - lr: 2.5000e-04 - 202ms/epoch - 34ms/step
Total training time: 55.047157287597656 [s]

8/8 [==============================] - 0s 22ms/step
Model: "model_24"
_________________________________________________________________
 Layer (type)                Output Shape              Param #   
=================================================================
 input_25 (InputLayer)       [(None, 2, 1, 1)]         0         
                                                                 
 conv2d_transpose_144 (Conv2  (None, 2, 2, 32)         1184      
 DTranspose)                                                     
                                                                 
 p_re_lu_126 (PReLU)         (None, 2, 2, 32)          128       
                                                                 
 conv2d_transpose_145 (Conv2  (None, 4, 4, 32)         36896     
 DTranspose)                                                     
                                                                 
 p_re_lu_127 (PReLU)         (None, 4, 4, 32)          512       
                                                                 
 conv2d_transpose_146 (Conv2  (None, 8, 8, 32)         36896     
 DTranspose)                                                     
                                                                 
 p_re_lu_128 (PReLU)         (None, 8, 8, 32)          2048      
                                                                 
 conv2d_transpose_147 (Conv2  (None, 16, 16, 32)       36896     
 DTranspose)                                                     
                                                                 
 p_re_lu_129 (PReLU)         (None, 16, 16, 32)        8192      
                                                                 
 conv2d_transpose_148 (Conv2  (None, 32, 32, 32)       36896     
 DTranspose)                                                     
                                                                 
 p_re_lu_130 (PReLU)         (None, 32, 32, 32)        32768     
                                                                 
 conv2d_transpose_149 (Conv2  (None, 64, 64, 32)       36896     
 DTranspose)                                                     
                                                                 
 p_re_lu_131 (PReLU)         (None, 64, 64, 32)        131072    
                                                                 
 conv2d_24 (Conv2D)          (None, 64, 64, 1)         1153      
                                                                 
=================================================================
Total params: 361,537
Trainable params: 361,537
Non-trainable params: 0
_________________________________________________________________
{'subsample_size': 180, 'filters': 32, 'kernel_size': 6, 'activation': 'prelu', 'batch_size': 32}
----------------------
err_loo: 0.03376497368541602
…
6/6 - 0s - loss: 2.3048e-06 - loo: 0.0298 - lr: 2.5000e-04 - 230ms/epoch - 38ms/step
Epoch 300/300
6/6 - 0s - loss: 2.2560e-06 - loo: 0.0315 - lr: 2.5000e-04 - 218ms/epoch - 36ms/step
Total training time: 72.14328956604004 [s]

8/8 [==============================] - 0s 28ms/step
Model: "model_25"
_________________________________________________________________
 Layer (type)                Output Shape              Param #   
=================================================================
 input_26 (InputLayer)       [(None, 2, 1, 1)]         0         
                                                                 
 conv2d_transpose_150 (Conv2  (None, 2, 2, 40)         1480      
 DTranspose)                                                     
                                                                 
 p_re_lu_132 (PReLU)         (None, 2, 2, 40)          160       
                                                                 
 conv2d_transpose_151 (Conv2  (None, 4, 4, 40)         57640     
 DTranspose)                                                     
                                                                 
 p_re_lu_133 (PReLU)         (None, 4, 4, 40)          640       
                                                                 
 conv2d_transpose_152 (Conv2  (None, 8, 8, 40)         57640     
 DTranspose)                                                     
                                                                 
 p_re_lu_134 (PReLU)         (None, 8, 8, 40)          2560      
                                                                 
 conv2d_transpose_153 (Conv2  (None, 16, 16, 40)       57640     
 DTranspose)                                                     
                                                                 
 p_re_lu_135 (PReLU)         (None, 16, 16, 40)        10240     
                                                                 
 conv2d_transpose_154 (Conv2  (None, 32, 32, 40)       57640     
 DTranspose)                                                     
                                                                 
 p_re_lu_136 (PReLU)         (None, 32, 32, 40)        40960     
                                                                 
 conv2d_transpose_155 (Conv2  (None, 64, 64, 40)       57640     
 DTranspose)                                                     
                                                                 
 p_re_lu_137 (PReLU)         (None, 64, 64, 40)        163840    
                                                                 
 conv2d_25 (Conv2D)          (None, 64, 64, 1)         1441      
                                                                 
=================================================================
Total params: 509,521
Trainable params: 509,521
Non-trainable params: 0
_________________________________________________________________
{'subsample_size': 180, 'filters': 40, 'kernel_size': 6, 'activation': 'prelu', 'batch_size': 32}
----------------------
err_loo: 0.03396552911322519
…
6/6 - 0s - loss: 1.7396e-06 - loo: 0.0307 - lr: 1.2500e-04 - 255ms/epoch - 42ms/step
Epoch 300/300
6/6 - 0s - loss: 1.7452e-06 - loo: 0.0265 - lr: 1.2500e-04 - 237ms/epoch - 40ms/step
Total training time: 75.17074799537659 [s]

8/8 [==============================] - 0s 29ms/step
Model: "model_26"
_________________________________________________________________
 Layer (type)                Output Shape              Param #   
=================================================================
 input_27 (InputLayer)       [(None, 2, 1, 1)]         0         
                                                                 
 conv2d_transpose_156 (Conv2  (None, 2, 2, 48)         1776      
 DTranspose)                                                     
                                                                 
 p_re_lu_138 (PReLU)         (None, 2, 2, 48)          192       
                                                                 
 conv2d_transpose_157 (Conv2  (None, 4, 4, 48)         82992     
 DTranspose)                                                     
                                                                 
 p_re_lu_139 (PReLU)         (None, 4, 4, 48)          768       
                                                                 
 conv2d_transpose_158 (Conv2  (None, 8, 8, 48)         82992     
 DTranspose)                                                     
                                                                 
 p_re_lu_140 (PReLU)         (None, 8, 8, 48)          3072      
                                                                 
 conv2d_transpose_159 (Conv2  (None, 16, 16, 48)       82992     
 DTranspose)                                                     
                                                                 
 p_re_lu_141 (PReLU)         (None, 16, 16, 48)        12288     
                                                                 
 conv2d_transpose_160 (Conv2  (None, 32, 32, 48)       82992     
 DTranspose)                                                     
                                                                 
 p_re_lu_142 (PReLU)         (None, 32, 32, 48)        49152     
                                                                 
 conv2d_transpose_161 (Conv2  (None, 64, 64, 48)       82992     
 DTranspose)                                                     
                                                                 
 p_re_lu_143 (PReLU)         (None, 64, 64, 48)        196608    
                                                                 
 conv2d_26 (Conv2D)          (None, 64, 64, 1)         1729      
                                                                 
=================================================================
Total params: 680,545
Trainable params: 680,545
Non-trainable params: 0
_________________________________________________________________
{'subsample_size': 180, 'filters': 48, 'kernel_size': 6, 'activation': 'prelu', 'batch_size': 32}
----------------------
err_loo: 0.03317409863989755
…
6/6 - 0s - loss: 1.5517e-06 - loo: 0.0274 - lr: 2.5000e-04 - 351ms/epoch - 59ms/step
Epoch 300/300
6/6 - 0s - loss: 1.5502e-06 - loo: 0.0266 - lr: 2.5000e-04 - 341ms/epoch - 57ms/step
Total training time: 101.06444573402405 [s]

8/8 [==============================] - 0s 39ms/step
Model: "model_27"
_________________________________________________________________
 Layer (type)                Output Shape              Param #   
=================================================================
 input_28 (InputLayer)       [(None, 2, 1, 1)]         0         
                                                                 
 conv2d_transpose_162 (Conv2  (None, 2, 2, 64)         2368      
 DTranspose)                                                     
                                                                 
 p_re_lu_144 (PReLU)         (None, 2, 2, 64)          256       
                                                                 
 conv2d_transpose_163 (Conv2  (None, 4, 4, 64)         147520    
 DTranspose)                                                     
                                                                 
 p_re_lu_145 (PReLU)         (None, 4, 4, 64)          1024      
                                                                 
 conv2d_transpose_164 (Conv2  (None, 8, 8, 64)         147520    
 DTranspose)                                                     
                                                                 
 p_re_lu_146 (PReLU)         (None, 8, 8, 64)          4096      
                                                                 
 conv2d_transpose_165 (Conv2  (None, 16, 16, 64)       147520    
 DTranspose)                                                     
                                                                 
 p_re_lu_147 (PReLU)         (None, 16, 16, 64)        16384     
                                                                 
 conv2d_transpose_166 (Conv2  (None, 32, 32, 64)       147520    
 DTranspose)                                                     
                                                                 
 p_re_lu_148 (PReLU)         (None, 32, 32, 64)        65536     
                                                                 
 conv2d_transpose_167 (Conv2  (None, 64, 64, 64)       147520    
 DTranspose)                                                     
                                                                 
 p_re_lu_149 (PReLU)         (None, 64, 64, 64)        262144    
                                                                 
 conv2d_27 (Conv2D)          (None, 64, 64, 1)         2305      
                                                                 
=================================================================
Total params: 1,091,713
Trainable params: 1,091,713
Non-trainable params: 0
_________________________________________________________________
{'subsample_size': 180, 'filters': 64, 'kernel_size': 6, 'activation': 'prelu', 'batch_size': 32}
----------------------
…
6/6 - 0s - loss: 4.9331e-06 - loo: 0.0318 - lr: 2.5000e-04 - 158ms/epoch - 26ms/step
Epoch 300/300
6/6 - 0s - loss: 4.8235e-06 - loo: 0.0322 - lr: 2.5000e-04 - 160ms/epoch - 27ms/step
Total training time: 48.50162124633789 [s]

8/8 [==============================] - 0s 16ms/step
Model: "model_28"
_________________________________________________________________
 Layer (type)                Output Shape              Param #   
=================================================================
 input_29 (InputLayer)       [(None, 2, 1, 1)]         0         
                                                                 
 conv2d_transpose_168 (Conv2  (None, 2, 2, 16)         800       
 DTranspose)                                                     
                                                                 
 p_re_lu_150 (PReLU)         (None, 2, 2, 16)          64        
                                                                 
 conv2d_transpose_169 (Conv2  (None, 4, 4, 16)         12560     
 DTranspose)                                                     
                                                                 
 p_re_lu_151 (PReLU)         (None, 4, 4, 16)          256       
                                                                 
 conv2d_transpose_170 (Conv2  (None, 8, 8, 16)         12560     
 DTranspose)                                                     
                                                                 
 p_re_lu_152 (PReLU)         (None, 8, 8, 16)          1024      
                                                                 
 conv2d_transpose_171 (Conv2  (None, 16, 16, 16)       12560     
 DTranspose)                                                     
                                                                 
 p_re_lu_153 (PReLU)         (None, 16, 16, 16)        4096      
                                                                 
 conv2d_transpose_172 (Conv2  (None, 32, 32, 16)       12560     
 DTranspose)                                                     
                                                                 
 p_re_lu_154 (PReLU)         (None, 32, 32, 16)        16384     
                                                                 
 conv2d_transpose_173 (Conv2  (None, 64, 64, 16)       12560     
 DTranspose)                                                     
                                                                 
 p_re_lu_155 (PReLU)         (None, 64, 64, 16)        65536     
                                                                 
 conv2d_28 (Conv2D)          (None, 64, 64, 1)         785       
                                                                 
=================================================================
Total params: 151,745
Trainable params: 151,745
Non-trainable params: 0
_________________________________________________________________
{'subsample_size': 180, 'filters': 16, 'kernel_size': 7, 'activation': 'prelu', 'batch_size': 32}
----------------------
err_loo: 0.03671988955061852
…
6/6 - 0s - loss: 1.8913e-06 - loo: 0.0278 - lr: 1.2500e-04 - 209ms/epoch - 35ms/step
Epoch 300/300
6/6 - 0s - loss: 1.8660e-06 - loo: 0.0284 - lr: 1.2500e-04 - 210ms/epoch - 35ms/step
Total training time: 63.81207728385925 [s]

8/8 [==============================] - 0s 23ms/step
Model: "model_29"
_________________________________________________________________
 Layer (type)                Output Shape              Param #   
=================================================================
 input_30 (InputLayer)       [(None, 2, 1, 1)]         0         
                                                                 
 conv2d_transpose_174 (Conv2  (None, 2, 2, 24)         1200      
 DTranspose)                                                     
                                                                 
 p_re_lu_156 (PReLU)         (None, 2, 2, 24)          96        
                                                                 
 conv2d_transpose_175 (Conv2  (None, 4, 4, 24)         28248     
 DTranspose)                                                     
                                                                 
 p_re_lu_157 (PReLU)         (None, 4, 4, 24)          384       
                                                                 
 conv2d_transpose_176 (Conv2  (None, 8, 8, 24)         28248     
 DTranspose)                                                     
                                                                 
 p_re_lu_158 (PReLU)         (None, 8, 8, 24)          1536      
                                                                 
 conv2d_transpose_177 (Conv2  (None, 16, 16, 24)       28248     
 DTranspose)                                                     
                                                                 
 p_re_lu_159 (PReLU)         (None, 16, 16, 24)        6144      
                                                                 
 conv2d_transpose_178 (Conv2  (None, 32, 32, 24)       28248     
 DTranspose)                                                     
                                                                 
 p_re_lu_160 (PReLU)         (None, 32, 32, 24)        24576     
                                                                 
 conv2d_transpose_179 (Conv2  (None, 64, 64, 24)       28248     
 DTranspose)                                                     
                                                                 
 p_re_lu_161 (PReLU)         (None, 64, 64, 24)        98304     
                                                                 
 conv2d_29 (Conv2D)          (None, 64, 64, 1)         1177      
                                                                 
=================================================================
Total params: 274,657
Trainable params: 274,657
Non-trainable params: 0
_________________________________________________________________
{'subsample_size': 180, 'filters': 24, 'kernel_size': 7, 'activation': 'prelu', 'batch_size': 32}
----------------------
err_loo: 0.031998680143765654
…
6/6 - 0s - loss: 2.2748e-06 - loo: 0.0286 - lr: 2.5000e-04 - 207ms/epoch - 34ms/step
Epoch 300/300
6/6 - 0s - loss: 2.2517e-06 - loo: 0.0261 - lr: 2.5000e-04 - 244ms/epoch - 41ms/step
Total training time: 63.35270023345947 [s]

8/8 [==============================] - 0s 26ms/step
Model: "model_30"
_________________________________________________________________
 Layer (type)                Output Shape              Param #   
=================================================================
 input_31 (InputLayer)       [(None, 2, 1, 1)]         0         
                                                                 
 conv2d_transpose_180 (Conv2  (None, 2, 2, 32)         1600      
 DTranspose)                                                     
                                                                 
 p_re_lu_162 (PReLU)         (None, 2, 2, 32)          128       
                                                                 
 conv2d_transpose_181 (Conv2  (None, 4, 4, 32)         50208     
 DTranspose)                                                     
                                                                 
 p_re_lu_163 (PReLU)         (None, 4, 4, 32)          512       
                                                                 
 conv2d_transpose_182 (Conv2  (None, 8, 8, 32)         50208     
 DTranspose)                                                     
                                                                 
 p_re_lu_164 (PReLU)         (None, 8, 8, 32)          2048      
                                                                 
 conv2d_transpose_183 (Conv2  (None, 16, 16, 32)       50208     
 DTranspose)                                                     
                                                                 
 p_re_lu_165 (PReLU)         (None, 16, 16, 32)        8192      
                                                                 
 conv2d_transpose_184 (Conv2  (None, 32, 32, 32)       50208     
 DTranspose)                                                     
                                                                 
 p_re_lu_166 (PReLU)         (None, 32, 32, 32)        32768     
                                                                 
 conv2d_transpose_185 (Conv2  (None, 64, 64, 32)       50208     
 DTranspose)                                                     
                                                                 
 p_re_lu_167 (PReLU)         (None, 64, 64, 32)        131072    
                                                                 
 conv2d_30 (Conv2D)          (None, 64, 64, 1)         1569      
                                                                 
=================================================================
Total params: 428,929
Trainable params: 428,929
Non-trainable params: 0
_________________________________________________________________
{'subsample_size': 180, 'filters': 32, 'kernel_size': 7, 'activation': 'prelu', 'batch_size': 32}
----------------------
err_loo: 0.03533786272924348
…
6/6 - 0s - loss: 2.3158e-06 - loo: 0.0296 - lr: 5.0000e-04 - 296ms/epoch - 49ms/step
Epoch 300/300
6/6 - 0s - loss: 2.2218e-06 - loo: 0.0291 - lr: 5.0000e-04 - 269ms/epoch - 45ms/step
Total training time: 86.34121584892273 [s]

8/8 [==============================] - 0s 32ms/step
Model: "model_31"
_________________________________________________________________
 Layer (type)                Output Shape              Param #   
=================================================================
 input_32 (InputLayer)       [(None, 2, 1, 1)]         0         
                                                                 
 conv2d_transpose_186 (Conv2  (None, 2, 2, 40)         2000      
 DTranspose)                                                     
                                                                 
 p_re_lu_168 (PReLU)         (None, 2, 2, 40)          160       
                                                                 
 conv2d_transpose_187 (Conv2  (None, 4, 4, 40)         78440     
 DTranspose)                                                     
                                                                 
 p_re_lu_169 (PReLU)         (None, 4, 4, 40)          640       
                                                                 
 conv2d_transpose_188 (Conv2  (None, 8, 8, 40)         78440     
 DTranspose)                                                     
                                                                 
 p_re_lu_170 (PReLU)         (None, 8, 8, 40)          2560      
                                                                 
 conv2d_transpose_189 (Conv2  (None, 16, 16, 40)       78440     
 DTranspose)                                                     
                                                                 
 p_re_lu_171 (PReLU)         (None, 16, 16, 40)        10240     
                                                                 
 conv2d_transpose_190 (Conv2  (None, 32, 32, 40)       78440     
 DTranspose)                                                     
                                                                 
 p_re_lu_172 (PReLU)         (None, 32, 32, 40)        40960     
                                                                 
 conv2d_transpose_191 (Conv2  (None, 64, 64, 40)       78440     
 DTranspose)                                                     
                                                                 
 p_re_lu_173 (PReLU)         (None, 64, 64, 40)        163840    
                                                                 
 conv2d_31 (Conv2D)          (None, 64, 64, 1)         1961      
                                                                 
=================================================================
Total params: 614,561
Trainable params: 614,561
Non-trainable params: 0
_________________________________________________________________
{'subsample_size': 180, 'filters': 40, 'kernel_size': 7, 'activation': 'prelu', 'batch_size': 32}
----------------------
err_loo: 0.0330975476495546
…
6/6 - 0s - loss: 1.6046e-06 - loo: 0.0254 - lr: 2.5000e-04 - 307ms/epoch - 51ms/step
Epoch 300/300
6/6 - 0s - loss: 1.5855e-06 - loo: 0.0259 - lr: 2.5000e-04 - 291ms/epoch - 49ms/step
Total training time: 88.86647725105286 [s]

8/8 [==============================] - 0s 34ms/step
Model: "model_32"
_________________________________________________________________
 Layer (type)                Output Shape              Param #   
=================================================================
 input_33 (InputLayer)       [(None, 2, 1, 1)]         0         
                                                                 
 conv2d_transpose_192 (Conv2  (None, 2, 2, 48)         2400      
 DTranspose)                                                     
                                                                 
 p_re_lu_174 (PReLU)         (None, 2, 2, 48)          192       
                                                                 
 conv2d_transpose_193 (Conv2  (None, 4, 4, 48)         112944    
 DTranspose)                                                     
                                                                 
 p_re_lu_175 (PReLU)         (None, 4, 4, 48)          768       
                                                                 
 conv2d_transpose_194 (Conv2  (None, 8, 8, 48)         112944    
 DTranspose)                                                     
                                                                 
 p_re_lu_176 (PReLU)         (None, 8, 8, 48)          3072      
                                                                 
 conv2d_transpose_195 (Conv2  (None, 16, 16, 48)       112944    
 DTranspose)                                                     
                                                                 
 p_re_lu_177 (PReLU)         (None, 16, 16, 48)        12288     
                                                                 
 conv2d_transpose_196 (Conv2  (None, 32, 32, 48)       112944    
 DTranspose)                                                     
                                                                 
 p_re_lu_178 (PReLU)         (None, 32, 32, 48)        49152     
                                                                 
 conv2d_transpose_197 (Conv2  (None, 64, 64, 48)       112944    
 DTranspose)                                                     
                                                                 
 p_re_lu_179 (PReLU)         (None, 64, 64, 48)        196608    
                                                                 
 conv2d_32 (Conv2D)          (None, 64, 64, 1)         2353      
                                                                 
=================================================================
Total params: 831,553
Trainable params: 831,553
Non-trainable params: 0
_________________________________________________________________
{'subsample_size': 180, 'filters': 48, 'kernel_size': 7, 'activation': 'prelu', 'batch_size': 32}
----------------------
err_loo: 0.031868831425122465
…
6/6 - 0s - loss: 2.6881e-06 - loo: 0.0313 - lr: 2.5000e-04 - 401ms/epoch - 67ms/step
Epoch 300/300
6/6 - 0s - loss: 2.7387e-06 - loo: 0.0312 - lr: 2.5000e-04 - 415ms/epoch - 69ms/step
Total training time: 122.46617579460144 [s]

8/8 [==============================] - 1s 44ms/step
Model: "model_33"
_________________________________________________________________
 Layer (type)                Output Shape              Param #   
=================================================================
 input_34 (InputLayer)       [(None, 2, 1, 1)]         0         
                                                                 
 conv2d_transpose_198 (Conv2  (None, 2, 2, 64)         3200      
 DTranspose)                                                     
                                                                 
 p_re_lu_180 (PReLU)         (None, 2, 2, 64)          256       
                                                                 
 conv2d_transpose_199 (Conv2  (None, 4, 4, 64)         200768    
 DTranspose)                                                     
                                                                 
 p_re_lu_181 (PReLU)         (None, 4, 4, 64)          1024      
                                                                 
 conv2d_transpose_200 (Conv2  (None, 8, 8, 64)         200768    
 DTranspose)                                                     
                                                                 
 p_re_lu_182 (PReLU)         (None, 8, 8, 64)          4096      
                                                                 
 conv2d_transpose_201 (Conv2  (None, 16, 16, 64)       200768    
 DTranspose)                                                     
                                                                 
 p_re_lu_183 (PReLU)         (None, 16, 16, 64)        16384     
                                                                 
 conv2d_transpose_202 (Conv2  (None, 32, 32, 64)       200768    
 DTranspose)                                                     
                                                                 
 p_re_lu_184 (PReLU)         (None, 32, 32, 64)        65536     
                                                                 
 conv2d_transpose_203 (Conv2  (None, 64, 64, 64)       200768    
 DTranspose)                                                     
                                                                 
 p_re_lu_185 (PReLU)         (None, 64, 64, 64)        262144    
                                                                 
 conv2d_33 (Conv2D)          (None, 64, 64, 1)         3137      
                                                                 
=================================================================
Total params: 1,359,617
Trainable params: 1,359,617
Non-trainable params: 0
_________________________________________________________________
{'subsample_size': 180, 'filters': 64, 'kernel_size': 7, 'activation': 'prelu', 'batch_size': 32}
----------------------
…
