…
6/6 - 0s - loss: 1.3735e-06 - loo: 0.0248 - lr: 1.2500e-04 - 163ms/epoch - 27ms/step
Epoch 500/500
6/6 - 0s - loss: 1.3480e-06 - loo: 0.0265 - lr: 1.2500e-04 - 173ms/epoch - 29ms/step
Total training time: 84.45571875572205 [s]

8/8 [==============================] - 0s 16ms/step
Model: "model"
_________________________________________________________________
 Layer (type)                Output Shape              Param #   
=================================================================
 input_1 (InputLayer)        [(None, 2, 1, 1)]         0         
                                                                 
 conv2d_transpose (Conv2DTra  (None, 2, 2, 64)         640       
 nspose)                                                         
                                                                 
 conv2d_transpose_1 (Conv2DT  (None, 4, 4, 64)         36928     
 ranspose)                                                       
                                                                 
 conv2d_transpose_2 (Conv2DT  (None, 8, 8, 64)         36928     
 ranspose)                                                       
                                                                 
 conv2d_transpose_3 (Conv2DT  (None, 16, 16, 64)       36928     
 ranspose)                                                       
                                                                 
 conv2d_transpose_4 (Conv2DT  (None, 32, 32, 64)       36928     
 ranspose)                                                       
                                                                 
 conv2d_transpose_5 (Conv2DT  (None, 64, 64, 64)       36928     
 ranspose)                                                       
                                                                 
 conv2d (Conv2D)             (None, 64, 64, 1)         577       
                                                                 
=================================================================
Total params: 185,857
Trainable params: 185,857
Non-trainable params: 0
_________________________________________________________________
{'subsample_size': 180, 'filters': 64, 'kernel_size': 3, 'activation': 'relu', 'batch_size': 32}
----------------------
err_loo: 0.03460835060048183
…
6/6 - 0s - loss: 1.9600e-06 - loo: 0.0292 - lr: 6.2500e-05 - 167ms/epoch - 28ms/step
Epoch 500/500
6/6 - 0s - loss: 1.9359e-06 - loo: 0.0305 - lr: 6.2500e-05 - 174ms/epoch - 29ms/step
Total training time: 84.12767243385315 [s]

8/8 [==============================] - 0s 17ms/step
Model: "model_1"
_________________________________________________________________
 Layer (type)                Output Shape              Param #   
=================================================================
 input_2 (InputLayer)        [(None, 2, 1, 1)]         0         
                                                                 
 conv2d_transpose_6 (Conv2DT  (None, 2, 2, 48)         816       
 ranspose)                                                       
                                                                 
 conv2d_transpose_7 (Conv2DT  (None, 4, 4, 48)         36912     
 ranspose)                                                       
                                                                 
 conv2d_transpose_8 (Conv2DT  (None, 8, 8, 48)         36912     
 ranspose)                                                       
                                                                 
 conv2d_transpose_9 (Conv2DT  (None, 16, 16, 48)       36912     
 ranspose)                                                       
                                                                 
 conv2d_transpose_10 (Conv2D  (None, 32, 32, 48)       36912     
 Transpose)                                                      
                                                                 
 conv2d_transpose_11 (Conv2D  (None, 64, 64, 48)       36912     
 Transpose)                                                      
                                                                 
 conv2d_1 (Conv2D)           (None, 64, 64, 1)         769       
                                                                 
=================================================================
Total params: 186,145
Trainable params: 186,145
Non-trainable params: 0
_________________________________________________________________
{'subsample_size': 180, 'filters': 48, 'kernel_size': 4, 'activation': 'relu', 'batch_size': 32}
----------------------
err_loo: 0.032867652829171035
…
6/6 - 0s - loss: 1.6685e-06 - loo: 0.0282 - lr: 6.2500e-05 - 197ms/epoch - 33ms/step
Epoch 500/500
6/6 - 0s - loss: 1.6645e-06 - loo: 0.0268 - lr: 6.2500e-05 - 192ms/epoch - 32ms/step
Total training time: 97.76604199409485 [s]

8/8 [==============================] - 0s 20ms/step
Model: "model_2"
_________________________________________________________________
 Layer (type)                Output Shape              Param #   
=================================================================
 input_3 (InputLayer)        [(None, 2, 1, 1)]         0         
                                                                 
 conv2d_transpose_12 (Conv2D  (None, 2, 2, 40)         1040      
 Transpose)                                                      
                                                                 
 conv2d_transpose_13 (Conv2D  (None, 4, 4, 40)         40040     
 Transpose)                                                      
                                                                 
 conv2d_transpose_14 (Conv2D  (None, 8, 8, 40)         40040     
 Transpose)                                                      
                                                                 
 conv2d_transpose_15 (Conv2D  (None, 16, 16, 40)       40040     
 Transpose)                                                      
                                                                 
 conv2d_transpose_16 (Conv2D  (None, 32, 32, 40)       40040     
 Transpose)                                                      
                                                                 
 conv2d_transpose_17 (Conv2D  (None, 64, 64, 40)       40040     
 Transpose)                                                      
                                                                 
 conv2d_2 (Conv2D)           (None, 64, 64, 1)         1001      
                                                                 
=================================================================
Total params: 202,241
Trainable params: 202,241
Non-trainable params: 0
_________________________________________________________________
{'subsample_size': 180, 'filters': 40, 'kernel_size': 5, 'activation': 'relu', 'batch_size': 32}
----------------------
err_loo: 0.031579570084027495
…
6/6 - 0s - loss: 1.9242e-06 - loo: 0.0295 - lr: 6.2500e-05 - 208ms/epoch - 35ms/step
Epoch 500/500
6/6 - 0s - loss: 1.8943e-06 - loo: 0.0292 - lr: 6.2500e-05 - 210ms/epoch - 35ms/step
Total training time: 103.2533106803894 [s]

8/8 [==============================] - 0s 21ms/step
Model: "model_3"
_________________________________________________________________
 Layer (type)                Output Shape              Param #   
=================================================================
 input_4 (InputLayer)        [(None, 2, 1, 1)]         0         
                                                                 
 conv2d_transpose_18 (Conv2D  (None, 2, 2, 48)         1248      
 Transpose)                                                      
                                                                 
 conv2d_transpose_19 (Conv2D  (None, 4, 4, 48)         57648     
 Transpose)                                                      
                                                                 
 conv2d_transpose_20 (Conv2D  (None, 8, 8, 48)         57648     
 Transpose)                                                      
                                                                 
 conv2d_transpose_21 (Conv2D  (None, 16, 16, 48)       57648     
 Transpose)                                                      
                                                                 
 conv2d_transpose_22 (Conv2D  (None, 32, 32, 48)       57648     
 Transpose)                                                      
                                                                 
 conv2d_transpose_23 (Conv2D  (None, 64, 64, 48)       57648     
 Transpose)                                                      
                                                                 
 conv2d_3 (Conv2D)           (None, 64, 64, 1)         1201      
                                                                 
=================================================================
Total params: 290,689
Trainable params: 290,689
Non-trainable params: 0
_________________________________________________________________
{'subsample_size': 180, 'filters': 48, 'kernel_size': 5, 'activation': 'relu', 'batch_size': 32}
----------------------
err_loo: 0.0317706588498871
…
6/6 - 0s - loss: 1.6264e-06 - loo: 0.0242 - lr: 1.2500e-04 - 229ms/epoch - 38ms/step
Epoch 500/500
6/6 - 0s - loss: 1.6274e-06 - loo: 0.0245 - lr: 1.2500e-04 - 228ms/epoch - 38ms/step
Total training time: 118.10497832298279 [s]

8/8 [==============================] - 0s 23ms/step
Model: "model_4"
_________________________________________________________________
 Layer (type)                Output Shape              Param #   
=================================================================
 input_5 (InputLayer)        [(None, 2, 1, 1)]         0         
                                                                 
 conv2d_transpose_24 (Conv2D  (None, 2, 2, 40)         1480      
 Transpose)                                                      
                                                                 
 conv2d_transpose_25 (Conv2D  (None, 4, 4, 40)         57640     
 Transpose)                                                      
                                                                 
 conv2d_transpose_26 (Conv2D  (None, 8, 8, 40)         57640     
 Transpose)                                                      
                                                                 
 conv2d_transpose_27 (Conv2D  (None, 16, 16, 40)       57640     
 Transpose)                                                      
                                                                 
 conv2d_transpose_28 (Conv2D  (None, 32, 32, 40)       57640     
 Transpose)                                                      
                                                                 
 conv2d_transpose_29 (Conv2D  (None, 64, 64, 40)       57640     
 Transpose)                                                      
                                                                 
 conv2d_4 (Conv2D)           (None, 64, 64, 1)         1441      
                                                                 
=================================================================
Total params: 291,121
Trainable params: 291,121
Non-trainable params: 0
_________________________________________________________________
{'subsample_size': 180, 'filters': 40, 'kernel_size': 6, 'activation': 'relu', 'batch_size': 32}
----------------------
err_loo: 0.030853939707756853
…
6/6 - 0s - loss: 1.3244e-06 - loo: 0.0254 - lr: 1.2500e-04 - 309ms/epoch - 52ms/step
Epoch 500/500
6/6 - 0s - loss: 1.3307e-06 - loo: 0.0252 - lr: 1.2500e-04 - 316ms/epoch - 53ms/step
Total training time: 160.47542762756348 [s]

8/8 [==============================] - 0s 31ms/step
Model: "model_5"
_________________________________________________________________
 Layer (type)                Output Shape              Param #   
=================================================================
 input_6 (InputLayer)        [(None, 2, 1, 1)]         0         
                                                                 
 conv2d_transpose_30 (Conv2D  (None, 2, 2, 64)         2368      
 Transpose)                                                      
                                                                 
 conv2d_transpose_31 (Conv2D  (None, 4, 4, 64)         147520    
 Transpose)                                                      
                                                                 
 conv2d_transpose_32 (Conv2D  (None, 8, 8, 64)         147520    
 Transpose)                                                      
                                                                 
 conv2d_transpose_33 (Conv2D  (None, 16, 16, 64)       147520    
 Transpose)                                                      
                                                                 
 conv2d_transpose_34 (Conv2D  (None, 32, 32, 64)       147520    
 Transpose)                                                      
                                                                 
 conv2d_transpose_35 (Conv2D  (None, 64, 64, 64)       147520    
 Transpose)                                                      
                                                                 
 conv2d_5 (Conv2D)           (None, 64, 64, 1)         2305      
                                                                 
=================================================================
Total params: 742,273
Trainable params: 742,273
Non-trainable params: 0
_________________________________________________________________
{'subsample_size': 180, 'filters': 64, 'kernel_size': 6, 'activation': 'relu', 'batch_size': 32}
----------------------
err_loo: 0.029351127880440822
…
6/6 - 0s - loss: 8.7383e-07 - loo: 0.0201 - lr: 1.2500e-04 - 275ms/epoch - 46ms/step
Epoch 500/500
6/6 - 0s - loss: 8.8973e-07 - loo: 0.0221 - lr: 1.2500e-04 - 280ms/epoch - 47ms/step
Total training time: 137.80558681488037 [s]

8/8 [==============================] - 0s 27ms/step
Model: "model_6"
_________________________________________________________________
 Layer (type)                Output Shape              Param #   
=================================================================
 input_7 (InputLayer)        [(None, 2, 1, 1)]         0         
                                                                 
 conv2d_transpose_36 (Conv2D  (None, 2, 2, 40)         2000      
 Transpose)                                                      
                                                                 
 conv2d_transpose_37 (Conv2D  (None, 4, 4, 40)         78440     
 Transpose)                                                      
                                                                 
 conv2d_transpose_38 (Conv2D  (None, 8, 8, 40)         78440     
 Transpose)                                                      
                                                                 
 conv2d_transpose_39 (Conv2D  (None, 16, 16, 40)       78440     
 Transpose)                                                      
                                                                 
 conv2d_transpose_40 (Conv2D  (None, 32, 32, 40)       78440     
 Transpose)                                                      
                                                                 
 conv2d_transpose_41 (Conv2D  (None, 64, 64, 40)       78440     
 Transpose)                                                      
                                                                 
 conv2d_6 (Conv2D)           (None, 64, 64, 1)         1961      
                                                                 
=================================================================
Total params: 396,161
Trainable params: 396,161
Non-trainable params: 0
_________________________________________________________________
{'subsample_size': 180, 'filters': 40, 'kernel_size': 7, 'activation': 'relu', 'batch_size': 32}
----------------------
err_loo: 0.02531192591357311
…
6/6 - 0s - loss: 1.1397e-06 - loo: 0.0229 - lr: 6.2500e-05 - 288ms/epoch - 48ms/step
Epoch 500/500
6/6 - 0s - loss: 1.1351e-06 - loo: 0.0210 - lr: 6.2500e-05 - 281ms/epoch - 47ms/step
Total training time: 144.04872345924377 [s]

8/8 [==============================] - 0s 28ms/step
Model: "model_7"
_________________________________________________________________
 Layer (type)                Output Shape              Param #   
=================================================================
 input_8 (InputLayer)        [(None, 2, 1, 1)]         0         
                                                                 
 conv2d_transpose_42 (Conv2D  (None, 2, 2, 48)         2400      
 Transpose)                                                      
                                                                 
 conv2d_transpose_43 (Conv2D  (None, 4, 4, 48)         112944    
 Transpose)                                                      
                                                                 
 conv2d_transpose_44 (Conv2D  (None, 8, 8, 48)         112944    
 Transpose)                                                      
                                                                 
 conv2d_transpose_45 (Conv2D  (None, 16, 16, 48)       112944    
 Transpose)                                                      
                                                                 
 conv2d_transpose_46 (Conv2D  (None, 32, 32, 48)       112944    
 Transpose)                                                      
                                                                 
 conv2d_transpose_47 (Conv2D  (None, 64, 64, 48)       112944    
 Transpose)                                                      
                                                                 
 conv2d_7 (Conv2D)           (None, 64, 64, 1)         2353      
                                                                 
=================================================================
Total params: 569,473
Trainable params: 569,473
Non-trainable params: 0
_________________________________________________________________
{'subsample_size': 180, 'filters': 48, 'kernel_size': 7, 'activation': 'relu', 'batch_size': 32}
----------------------
err_loo: 0.02844824036526761
…
6/6 - 0s - loss: 9.3176e-07 - loo: 0.0223 - lr: 1.2500e-04 - 361ms/epoch - 60ms/step
Epoch 500/500
6/6 - 0s - loss: 9.3663e-07 - loo: 0.0209 - lr: 1.2500e-04 - 377ms/epoch - 63ms/step
Total training time: 187.85030341148376 [s]

8/8 [==============================] - 0s 37ms/step
Model: "model_8"
_________________________________________________________________
 Layer (type)                Output Shape              Param #   
=================================================================
 input_9 (InputLayer)        [(None, 2, 1, 1)]         0         
                                                                 
 conv2d_transpose_48 (Conv2D  (None, 2, 2, 64)         3200      
 Transpose)                                                      
                                                                 
 conv2d_transpose_49 (Conv2D  (None, 4, 4, 64)         200768    
 Transpose)                                                      
                                                                 
 conv2d_transpose_50 (Conv2D  (None, 8, 8, 64)         200768    
 Transpose)                                                      
                                                                 
 conv2d_transpose_51 (Conv2D  (None, 16, 16, 64)       200768    
 Transpose)                                                      
                                                                 
 conv2d_transpose_52 (Conv2D  (None, 32, 32, 64)       200768    
 Transpose)                                                      
                                                                 
 conv2d_transpose_53 (Conv2D  (None, 64, 64, 64)       200768    
 Transpose)                                                      
                                                                 
 conv2d_8 (Conv2D)           (None, 64, 64, 1)         3137      
                                                                 
=================================================================
Total params: 1,010,177
Trainable params: 1,010,177
Non-trainable params: 0
_________________________________________________________________
{'subsample_size': 180, 'filters': 64, 'kernel_size': 7, 'activation': 'relu', 'batch_size': 32}
----------------------
…
6/6 - 0s - loss: 1.2798e-06 - loo: 0.0245 - lr: 6.2500e-05 - 203ms/epoch - 34ms/step
Epoch 500/500
6/6 - 0s - loss: 1.2759e-06 - loo: 0.0272 - lr: 6.2500e-05 - 204ms/epoch - 34ms/step
Total training time: 102.64659023284912 [s]

8/8 [==============================] - 0s 21ms/step
Model: "model_9"
_________________________________________________________________
 Layer (type)                Output Shape              Param #   
=================================================================
 input_10 (InputLayer)       [(None, 2, 1, 1)]         0         
                                                                 
 conv2d_transpose_54 (Conv2D  (None, 2, 2, 64)         640       
 Transpose)                                                      
                                                                 
 p_re_lu (PReLU)             (None, 2, 2, 64)          256       
                                                                 
 conv2d_transpose_55 (Conv2D  (None, 4, 4, 64)         36928     
 Transpose)                                                      
                                                                 
 p_re_lu_1 (PReLU)           (None, 4, 4, 64)          1024      
                                                                 
 conv2d_transpose_56 (Conv2D  (None, 8, 8, 64)         36928     
 Transpose)                                                      
                                                                 
 p_re_lu_2 (PReLU)           (None, 8, 8, 64)          4096      
                                                                 
 conv2d_transpose_57 (Conv2D  (None, 16, 16, 64)       36928     
 Transpose)                                                      
                                                                 
 p_re_lu_3 (PReLU)           (None, 16, 16, 64)        16384     
                                                                 
 conv2d_transpose_58 (Conv2D  (None, 32, 32, 64)       36928     
 Transpose)                                                      
                                                                 
 p_re_lu_4 (PReLU)           (None, 32, 32, 64)        65536     
                                                                 
 conv2d_transpose_59 (Conv2D  (None, 64, 64, 64)       36928     
 Transpose)                                                      
                                                                 
 p_re_lu_5 (PReLU)           (None, 64, 64, 64)        262144    
                                                                 
 conv2d_9 (Conv2D)           (None, 64, 64, 1)         577       
                                                                 
=================================================================
Total params: 535,297
Trainable params: 535,297
Non-trainable params: 0
_________________________________________________________________
{'subsample_size': 180, 'filters': 64, 'kernel_size': 3, 'activation': 'prelu', 'batch_size': 32}
----------------------
err_loo: 0.0313987373368748
…
6/6 - 0s - loss: 2.6495e-06 - loo: 0.0296 - lr: 1.5625e-05 - 179ms/epoch - 30ms/step
Epoch 500/500
6/6 - 0s - loss: 2.6513e-06 - loo: 0.0306 - lr: 1.5625e-05 - 183ms/epoch - 31ms/step
Total training time: 91.15876173973083 [s]

8/8 [==============================] - 0s 20ms/step
Model: "model_10"
_________________________________________________________________
 Layer (type)                Output Shape              Param #   
=================================================================
 input_11 (InputLayer)       [(None, 2, 1, 1)]         0         
                                                                 
 conv2d_transpose_60 (Conv2D  (None, 2, 2, 48)         816       
 Transpose)                                                      
                                                                 
 p_re_lu_6 (PReLU)           (None, 2, 2, 48)          192       
                                                                 
 conv2d_transpose_61 (Conv2D  (None, 4, 4, 48)         36912     
 Transpose)                                                      
                                                                 
 p_re_lu_7 (PReLU)           (None, 4, 4, 48)          768       
                                                                 
 conv2d_transpose_62 (Conv2D  (None, 8, 8, 48)         36912     
 Transpose)                                                      
                                                                 
 p_re_lu_8 (PReLU)           (None, 8, 8, 48)          3072      
                                                                 
 conv2d_transpose_63 (Conv2D  (None, 16, 16, 48)       36912     
 Transpose)                                                      
                                                                 
 p_re_lu_9 (PReLU)           (None, 16, 16, 48)        12288     
                                                                 
 conv2d_transpose_64 (Conv2D  (None, 32, 32, 48)       36912     
 Transpose)                                                      
                                                                 
 p_re_lu_10 (PReLU)          (None, 32, 32, 48)        49152     
                                                                 
 conv2d_transpose_65 (Conv2D  (None, 64, 64, 48)       36912     
 Transpose)                                                      
                                                                 
 p_re_lu_11 (PReLU)          (None, 64, 64, 48)        196608    
                                                                 
 conv2d_10 (Conv2D)          (None, 64, 64, 1)         769       
                                                                 
=================================================================
Total params: 448,225
Trainable params: 448,225
Non-trainable params: 0
_________________________________________________________________
{'subsample_size': 180, 'filters': 48, 'kernel_size': 4, 'activation': 'prelu', 'batch_size': 32}
----------------------
err_loo: 0.03432597330134317
…
6/6 - 0s - loss: 1.8659e-06 - loo: 0.0298 - lr: 3.1250e-05 - 188ms/epoch - 31ms/step
Epoch 500/500
6/6 - 0s - loss: 1.8609e-06 - loo: 0.0282 - lr: 3.1250e-05 - 185ms/epoch - 31ms/step
Total training time: 97.46255731582642 [s]

8/8 [==============================] - 0s 22ms/step
Model: "model_11"
_________________________________________________________________
 Layer (type)                Output Shape              Param #   
=================================================================
 input_12 (InputLayer)       [(None, 2, 1, 1)]         0         
                                                                 
 conv2d_transpose_66 (Conv2D  (None, 2, 2, 40)         1040      
 Transpose)                                                      
                                                                 
 p_re_lu_12 (PReLU)          (None, 2, 2, 40)          160       
                                                                 
 conv2d_transpose_67 (Conv2D  (None, 4, 4, 40)         40040     
 Transpose)                                                      
                                                                 
 p_re_lu_13 (PReLU)          (None, 4, 4, 40)          640       
                                                                 
 conv2d_transpose_68 (Conv2D  (None, 8, 8, 40)         40040     
 Transpose)                                                      
                                                                 
 p_re_lu_14 (PReLU)          (None, 8, 8, 40)          2560      
                                                                 
 conv2d_transpose_69 (Conv2D  (None, 16, 16, 40)       40040     
 Transpose)                                                      
                                                                 
 p_re_lu_15 (PReLU)          (None, 16, 16, 40)        10240     
                                                                 
 conv2d_transpose_70 (Conv2D  (None, 32, 32, 40)       40040     
 Transpose)                                                      
                                                                 
 p_re_lu_16 (PReLU)          (None, 32, 32, 40)        40960     
                                                                 
 conv2d_transpose_71 (Conv2D  (None, 64, 64, 40)       40040     
 Transpose)                                                      
                                                                 
 p_re_lu_17 (PReLU)          (None, 64, 64, 40)        163840    
                                                                 
 conv2d_11 (Conv2D)          (None, 64, 64, 1)         1001      
                                                                 
=================================================================
Total params: 420,641
Trainable params: 420,641
Non-trainable params: 0
_________________________________________________________________
{'subsample_size': 180, 'filters': 40, 'kernel_size': 5, 'activation': 'prelu', 'batch_size': 32}
----------------------
err_loo: 0.0336704935721676
…
6/6 - 0s - loss: 2.3400e-06 - loo: 0.0309 - lr: 3.1250e-05 - 202ms/epoch - 34ms/step
Epoch 500/500
6/6 - 0s - loss: 2.3520e-06 - loo: 0.0291 - lr: 3.1250e-05 - 197ms/epoch - 33ms/step
Total training time: 103.685626745224 [s]

8/8 [==============================] - 0s 23ms/step
Model: "model_12"
_________________________________________________________________
 Layer (type)                Output Shape              Param #   
=================================================================
 input_13 (InputLayer)       [(None, 2, 1, 1)]         0         
                                                                 
 conv2d_transpose_72 (Conv2D  (None, 2, 2, 48)         1248      
 Transpose)                                                      
                                                                 
 p_re_lu_18 (PReLU)          (None, 2, 2, 48)          192       
                                                                 
 conv2d_transpose_73 (Conv2D  (None, 4, 4, 48)         57648     
 Transpose)                                                      
                                                                 
 p_re_lu_19 (PReLU)          (None, 4, 4, 48)          768       
                                                                 
 conv2d_transpose_74 (Conv2D  (None, 8, 8, 48)         57648     
 Transpose)                                                      
                                                                 
 p_re_lu_20 (PReLU)          (None, 8, 8, 48)          3072      
                                                                 
 conv2d_transpose_75 (Conv2D  (None, 16, 16, 48)       57648     
 Transpose)                                                      
                                                                 
 p_re_lu_21 (PReLU)          (None, 16, 16, 48)        12288     
                                                                 
 conv2d_transpose_76 (Conv2D  (None, 32, 32, 48)       57648     
 Transpose)                                                      
                                                                 
 p_re_lu_22 (PReLU)          (None, 32, 32, 48)        49152     
                                                                 
 conv2d_transpose_77 (Conv2D  (None, 64, 64, 48)       57648     
 Transpose)                                                      
                                                                 
 p_re_lu_23 (PReLU)          (None, 64, 64, 48)        196608    
                                                                 
 conv2d_12 (Conv2D)          (None, 64, 64, 1)         1201      
                                                                 
=================================================================
Total params: 552,769
Trainable params: 552,769
Non-trainable params: 0
_________________________________________________________________
{'subsample_size': 180, 'filters': 48, 'kernel_size': 5, 'activation': 'prelu', 'batch_size': 32}
----------------------
err_loo: 0.03427000756112978
…
6/6 - 0s - loss: 2.6574e-06 - loo: 0.0290 - lr: 3.1250e-05 - 233ms/epoch - 39ms/step
Epoch 500/500
6/6 - 0s - loss: 2.6501e-06 - loo: 0.0314 - lr: 3.1250e-05 - 254ms/epoch - 42ms/step
Total training time: 122.73068976402283 [s]

8/8 [==============================] - 0s 27ms/step
Model: "model_13"
_________________________________________________________________
 Layer (type)                Output Shape              Param #   
=================================================================
 input_14 (InputLayer)       [(None, 2, 1, 1)]         0         
                                                                 
 conv2d_transpose_78 (Conv2D  (None, 2, 2, 40)         1480      
 Transpose)                                                      
                                                                 
 p_re_lu_24 (PReLU)          (None, 2, 2, 40)          160       
                                                                 
 conv2d_transpose_79 (Conv2D  (None, 4, 4, 40)         57640     
 Transpose)                                                      
                                                                 
 p_re_lu_25 (PReLU)          (None, 4, 4, 40)          640       
                                                                 
 conv2d_transpose_80 (Conv2D  (None, 8, 8, 40)         57640     
 Transpose)                                                      
                                                                 
 p_re_lu_26 (PReLU)          (None, 8, 8, 40)          2560      
                                                                 
 conv2d_transpose_81 (Conv2D  (None, 16, 16, 40)       57640     
 Transpose)                                                      
                                                                 
 p_re_lu_27 (PReLU)          (None, 16, 16, 40)        10240     
                                                                 
 conv2d_transpose_82 (Conv2D  (None, 32, 32, 40)       57640     
 Transpose)                                                      
                                                                 
 p_re_lu_28 (PReLU)          (None, 32, 32, 40)        40960     
                                                                 
 conv2d_transpose_83 (Conv2D  (None, 64, 64, 40)       57640     
 Transpose)                                                      
                                                                 
 p_re_lu_29 (PReLU)          (None, 64, 64, 40)        163840    
                                                                 
 conv2d_13 (Conv2D)          (None, 64, 64, 1)         1441      
                                                                 
=================================================================
Total params: 509,521
Trainable params: 509,521
Non-trainable params: 0
_________________________________________________________________
{'subsample_size': 180, 'filters': 40, 'kernel_size': 6, 'activation': 'prelu', 'batch_size': 32}
----------------------
err_loo: 0.034352538346461646
…
6/6 - 0s - loss: 1.0031e-06 - loo: 0.0229 - lr: 3.1250e-05 - 336ms/epoch - 56ms/step
Epoch 500/500
6/6 - 0s - loss: 1.0066e-06 - loo: 0.0248 - lr: 3.1250e-05 - 348ms/epoch - 58ms/step
Total training time: 171.51576972007751 [s]

8/8 [==============================] - 0s 37ms/step
Model: "model_14"
_________________________________________________________________
 Layer (type)                Output Shape              Param #   
=================================================================
 input_15 (InputLayer)       [(None, 2, 1, 1)]         0         
                                                                 
 conv2d_transpose_84 (Conv2D  (None, 2, 2, 64)         2368      
 Transpose)                                                      
                                                                 
 p_re_lu_30 (PReLU)          (None, 2, 2, 64)          256       
                                                                 
 conv2d_transpose_85 (Conv2D  (None, 4, 4, 64)         147520    
 Transpose)                                                      
                                                                 
 p_re_lu_31 (PReLU)          (None, 4, 4, 64)          1024      
                                                                 
 conv2d_transpose_86 (Conv2D  (None, 8, 8, 64)         147520    
 Transpose)                                                      
                                                                 
 p_re_lu_32 (PReLU)          (None, 8, 8, 64)          4096      
                                                                 
 conv2d_transpose_87 (Conv2D  (None, 16, 16, 64)       147520    
 Transpose)                                                      
                                                                 
 p_re_lu_33 (PReLU)          (None, 16, 16, 64)        16384     
                                                                 
 conv2d_transpose_88 (Conv2D  (None, 32, 32, 64)       147520    
 Transpose)                                                      
                                                                 
 p_re_lu_34 (PReLU)          (None, 32, 32, 64)        65536     
                                                                 
 conv2d_transpose_89 (Conv2D  (None, 64, 64, 64)       147520    
 Transpose)                                                      
                                                                 
 p_re_lu_35 (PReLU)          (None, 64, 64, 64)        262144    
                                                                 
 conv2d_14 (Conv2D)          (None, 64, 64, 1)         2305      
                                                                 
=================================================================
Total params: 1,091,713
Trainable params: 1,091,713
Non-trainable params: 0
_________________________________________________________________
{'subsample_size': 180, 'filters': 64, 'kernel_size': 6, 'activation': 'prelu', 'batch_size': 32}
----------------------
…
6/6 - 0s - loss: 9.5229e-07 - loo: 0.0252 - lr: 3.1250e-05 - 275ms/epoch - 46ms/step
Epoch 500/500
6/6 - 0s - loss: 9.5699e-07 - loo: 0.0245 - lr: 3.1250e-05 - 286ms/epoch - 48ms/step
Total training time: 147.23777031898499 [s]

8/8 [==============================] - 0s 31ms/step
Model: "model_15"
_________________________________________________________________
 Layer (type)                Output Shape              Param #   
=================================================================
 input_16 (InputLayer)       [(None, 2, 1, 1)]         0         
                                                                 
 conv2d_transpose_90 (Conv2D  (None, 2, 2, 40)         2000      
 Transpose)                                                      
                                                                 
 p_re_lu_36 (PReLU)          (None, 2, 2, 40)          160       
                                                                 
 conv2d_transpose_91 (Conv2D  (None, 4, 4, 40)         78440     
 Transpose)                                                      
                                                                 
 p_re_lu_37 (PReLU)          (None, 4, 4, 40)          640       
                                                                 
 conv2d_transpose_92 (Conv2D  (None, 8, 8, 40)         78440     
 Transpose)                                                      
                                                                 
 p_re_lu_38 (PReLU)          (None, 8, 8, 40)          2560      
                                                                 
 conv2d_transpose_93 (Conv2D  (None, 16, 16, 40)       78440     
 Transpose)                                                      
                                                                 
 p_re_lu_39 (PReLU)          (None, 16, 16, 40)        10240     
                                                                 
 conv2d_transpose_94 (Conv2D  (None, 32, 32, 40)       78440     
 Transpose)                                                      
                                                                 
 p_re_lu_40 (PReLU)          (None, 32, 32, 40)        40960     
                                                                 
 conv2d_transpose_95 (Conv2D  (None, 64, 64, 40)       78440     
 Transpose)                                                      
                                                                 
 p_re_lu_41 (PReLU)          (None, 64, 64, 40)        163840    
                                                                 
 conv2d_15 (Conv2D)          (None, 64, 64, 1)         1961      
                                                                 
=================================================================
Total params: 614,561
Trainable params: 614,561
Non-trainable params: 0
_________________________________________________________________
{'subsample_size': 180, 'filters': 40, 'kernel_size': 7, 'activation': 'prelu', 'batch_size': 32}
----------------------
err_loo: 0.03083248576092801
…
6/6 - 0s - loss: 1.9068e-06 - loo: 0.0260 - lr: 1.2500e-04 - 298ms/epoch - 50ms/step
Epoch 500/500
6/6 - 0s - loss: 1.9369e-06 - loo: 0.0284 - lr: 1.2500e-04 - 304ms/epoch - 51ms/step
Total training time: 150.52973747253418 [s]

8/8 [==============================] - 0s 32ms/step
Model: "model_16"
_________________________________________________________________
 Layer (type)                Output Shape              Param #   
=================================================================
 input_17 (InputLayer)       [(None, 2, 1, 1)]         0         
                                                                 
 conv2d_transpose_96 (Conv2D  (None, 2, 2, 48)         2400      
 Transpose)                                                      
                                                                 
 p_re_lu_42 (PReLU)          (None, 2, 2, 48)          192       
                                                                 
 conv2d_transpose_97 (Conv2D  (None, 4, 4, 48)         112944    
 Transpose)                                                      
                                                                 
 p_re_lu_43 (PReLU)          (None, 4, 4, 48)          768       
                                                                 
 conv2d_transpose_98 (Conv2D  (None, 8, 8, 48)         112944    
 Transpose)                                                      
                                                                 
 p_re_lu_44 (PReLU)          (None, 8, 8, 48)          3072      
                                                                 
 conv2d_transpose_99 (Conv2D  (None, 16, 16, 48)       112944    
 Transpose)                                                      
                                                                 
 p_re_lu_45 (PReLU)          (None, 16, 16, 48)        12288     
                                                                 
 conv2d_transpose_100 (Conv2  (None, 32, 32, 48)       112944    
 DTranspose)                                                     
                                                                 
 p_re_lu_46 (PReLU)          (None, 32, 32, 48)        49152     
                                                                 
 conv2d_transpose_101 (Conv2  (None, 64, 64, 48)       112944    
 DTranspose)                                                     
                                                                 
 p_re_lu_47 (PReLU)          (None, 64, 64, 48)        196608    
                                                                 
 conv2d_16 (Conv2D)          (None, 64, 64, 1)         2353      
                                                                 
=================================================================
Total params: 831,553
Trainable params: 831,553
Non-trainable params: 0
_________________________________________________________________
{'subsample_size': 180, 'filters': 48, 'kernel_size': 7, 'activation': 'prelu', 'batch_size': 32}
----------------------
err_loo: 0.03697163349311754
…
6/6 - 0s - loss: 1.1125e-06 - loo: 0.0217 - lr: 6.2500e-05 - 391ms/epoch - 65ms/step
Epoch 500/500
6/6 - 0s - loss: 1.1159e-06 - loo: 0.0203 - lr: 6.2500e-05 - 415ms/epoch - 69ms/step
Total training time: 204.98021984100342 [s]

8/8 [==============================] - 0s 44ms/step
Model: "model_17"
_________________________________________________________________
 Layer (type)                Output Shape              Param #   
=================================================================
 input_18 (InputLayer)       [(None, 2, 1, 1)]         0         
                                                                 
 conv2d_transpose_102 (Conv2  (None, 2, 2, 64)         3200      
 DTranspose)                                                     
                                                                 
 p_re_lu_48 (PReLU)          (None, 2, 2, 64)          256       
                                                                 
 conv2d_transpose_103 (Conv2  (None, 4, 4, 64)         200768    
 DTranspose)                                                     
                                                                 
 p_re_lu_49 (PReLU)          (None, 4, 4, 64)          1024      
                                                                 
 conv2d_transpose_104 (Conv2  (None, 8, 8, 64)         200768    
 DTranspose)                                                     
                                                                 
 p_re_lu_50 (PReLU)          (None, 8, 8, 64)          4096      
                                                                 
 conv2d_transpose_105 (Conv2  (None, 16, 16, 64)       200768    
 DTranspose)                                                     
                                                                 
 p_re_lu_51 (PReLU)          (None, 16, 16, 64)        16384     
                                                                 
 conv2d_transpose_106 (Conv2  (None, 32, 32, 64)       200768    
 DTranspose)                                                     
                                                                 
 p_re_lu_52 (PReLU)          (None, 32, 32, 64)        65536     
                                                                 
 conv2d_transpose_107 (Conv2  (None, 64, 64, 64)       200768    
 DTranspose)                                                     
                                                                 
 p_re_lu_53 (PReLU)          (None, 64, 64, 64)        262144    
                                                                 
 conv2d_17 (Conv2D)          (None, 64, 64, 1)         3137      
                                                                 
=================================================================
Total params: 1,359,617
Trainable params: 1,359,617
Non-trainable params: 0
_________________________________________________________________
{'subsample_size': 180, 'filters': 64, 'kernel_size': 7, 'activation': 'prelu', 'batch_size': 32}
----------------------
…
