…
2022-10-04 13:48:56.125247: I tensorflow/core/platform/cpu_feature_guard.cc:193] This TensorFlow binary is optimized with oneAPI Deep Neural Network Library (oneDNN) to use the following CPU instructions in performance-critical operations:  AVX2 FMA
To enable them in other operations, rebuild TensorFlow with the appropriate compiler flags.
Data size (7577600, 10)
Model: "model"
_________________________________________________________________
 Layer (type)                Output Shape              Param #   
=================================================================
 input_1 (InputLayer)        [(None, 4)]               0         
                                                                 
 dense (Dense)               (None, 70)                350       
                                                                 
 dense_1 (Dense)             (None, 70)                4970      
                                                                 
 dense_2 (Dense)             (None, 70)                4970      
                                                                 
 dense_3 (Dense)             (None, 70)                4970      
                                                                 
 dense_4 (Dense)             (None, 70)                4970      
                                                                 
 dense_5 (Dense)             (None, 70)                4970      
                                                                 
 dense_6 (Dense)             (None, 70)                4970      
                                                                 
 dense_7 (Dense)             (None, 3)                 213       
                                                                 
=================================================================
Total params: 30,383
Trainable params: 30,383
Non-trainable params: 0
_________________________________________________________________
Epoch 1/300
1250/1250 - 2s - loss: 0.0061 - loo: 0.1952 - lr: 0.0010 - 2s/epoch - 2ms/step
Epoch 2/300
1250/1250 - 1s - loss: 0.0039 - loo: 0.1705 - lr: 0.0010 - 1s/epoch - 1ms/step
…
