…
2022-10-05 07:08:49.179715: I tensorflow/core/platform/cpu_feature_guard.cc:193] This TensorFlow binary is optimized with oneAPI Deep Neural Network Library (oneDNN) to use the following CPU instructions in performance-critical operations:  AVX2 FMA
To enable them in other operations, rebuild TensorFlow with the appropriate compiler flags.
Data size (7577600, 10)
Model: "model"
_________________________________________________________________
 Layer (type)                Output Shape              Param #   
=================================================================
 input_1 (InputLayer)        [(None, 4)]               0         
                                                                 
 dense (Dense)               (None, 80)                400       
                                                                 
 dense_1 (Dense)             (None, 80)                6480      
                                                                 
 dense_2 (Dense)             (None, 80)                6480      
                                                                 
 dense_3 (Dense)             (None, 80)                6480      
                                                                 
 dense_4 (Dense)             (None, 80)                6480      
                                                                 
 dense_5 (Dense)             (None, 80)                6480      
                                                                 
 dense_6 (Dense)             (None, 80)                6480      
                                                                 
 dense_7 (Dense)             (None, 80)                6480      
                                                                 
 dense_8 (Dense)             (None, 3)                 243       
                                                                 
=================================================================
Total params: 46,003
Trainable params: 46,003
Non-trainable params: 0
_________________________________________________________________
Epoch 1/200
2500/2500 - 4s - loss: 0.0044 - loo: 0.2650 - lr: 0.0010 - 4s/epoch - 2ms/step
Epoch 2/200
2500/2500 - 4s - loss: 0.0023 - loo: 0.2246 - lr: 0.0010 - 4s/epoch - 1ms/step
…
{'xi_kind': 'param', 'depth': 8, 'width': 80, 'activation': 'elu', 'subsample_size': 80000, 'batch_size': 32}
----------------------
err_loo: 1.0001569265336363
err_mae: 0.0010968857339896977
err_mse: 0.009036499582161767
----------------------
Data size (7577600, 10)
Model: "model_1"
_________________________________________________________________
 Layer (type)                Output Shape              Param #   
=================================================================
 input_2 (InputLayer)        [(None, 4)]               0         
                                                                 
 dense_9 (Dense)             (None, 90)                450       
                                                                 
 dense_10 (Dense)            (None, 90)                8190      
                                                                 
 dense_11 (Dense)            (None, 90)                8190      
                                                                 
 dense_12 (Dense)            (None, 90)                8190      
                                                                 
 dense_13 (Dense)            (None, 90)                8190      
                                                                 
 dense_14 (Dense)            (None, 90)                8190      
                                                                 
 dense_15 (Dense)            (None, 90)                8190      
                                                                 
 dense_16 (Dense)            (None, 90)                8190      
                                                                 
 dense_17 (Dense)            (None, 90)                8190      
                                                                 
 dense_18 (Dense)            (None, 3)                 273       
                                                                 
=================================================================
Total params: 66,243
Trainable params: 66,243
Non-trainable params: 0
_________________________________________________________________
Epoch 1/200
2500/2500 - 5s - loss: 0.0042 - loo: 0.2714 - lr: 0.0010 - 5s/epoch - 2ms/step
Epoch 2/200
2500/2500 - 4s - loss: 0.0023 - loo: 0.2237 - lr: 0.0010 - 4s/epoch - 2ms/step
…
{'xi_kind': 'param', 'depth': 9, 'width': 90, 'activation': 'elu', 'subsample_size': 80000, 'batch_size': 32}
----------------------
err_loo: 1.0000061389960444
err_mae: 0.0012066066537737366
err_mse: 0.00635639315819369
----------------------
Data size (7577600, 10)
Model: "model_2"
_________________________________________________________________
 Layer (type)                Output Shape              Param #   
=================================================================
 input_3 (InputLayer)        [(None, 4)]               0         
                                                                 
 dense_19 (Dense)            (None, 100)               500       
                                                                 
 dense_20 (Dense)            (None, 100)               10100     
                                                                 
 dense_21 (Dense)            (None, 100)               10100     
                                                                 
 dense_22 (Dense)            (None, 100)               10100     
                                                                 
 dense_23 (Dense)            (None, 100)               10100     
                                                                 
 dense_24 (Dense)            (None, 100)               10100     
                                                                 
 dense_25 (Dense)            (None, 100)               10100     
                                                                 
 dense_26 (Dense)            (None, 100)               10100     
                                                                 
 dense_27 (Dense)            (None, 100)               10100     
                                                                 
 dense_28 (Dense)            (None, 100)               10100     
                                                                 
 dense_29 (Dense)            (None, 3)                 303       
                                                                 
=================================================================
Total params: 91,703
Trainable params: 91,703
Non-trainable params: 0
_________________________________________________________________
Epoch 1/200
2500/2500 - 5s - loss: 0.0046 - loo: 0.2682 - lr: 0.0010 - 5s/epoch - 2ms/step
Epoch 2/200
2500/2500 - 5s - loss: 0.0023 - loo: 0.2229 - lr: 0.0010 - 5s/epoch - 2ms/step
…
