…
3/3 - 0s - loss: 2.3010e-06 - loo: 0.0288 - lr: 2.5000e-04 - 197ms/epoch - 66ms/step
Epoch 500/500
3/3 - 0s - loss: 2.3894e-06 - loo: 0.0326 - lr: 2.5000e-04 - 198ms/epoch - 66ms/step
Total training time: 101.6881422996521 [s]

8/8 [==============================] - 0s 28ms/step
Model: "model"
_________________________________________________________________
 Layer (type)                Output Shape              Param #   
=================================================================
 input_1 (InputLayer)        [(None, 2, 1, 1)]         0         
                                                                 
 conv2d_transpose (Conv2DTra  (None, 2, 2, 40)         2000      
 nspose)                                                         
                                                                 
 conv2d_transpose_1 (Conv2DT  (None, 4, 4, 40)         78440     
 ranspose)                                                       
                                                                 
 conv2d_transpose_2 (Conv2DT  (None, 8, 8, 40)         78440     
 ranspose)                                                       
                                                                 
 conv2d_transpose_3 (Conv2DT  (None, 16, 16, 40)       78440     
 ranspose)                                                       
                                                                 
 conv2d_transpose_4 (Conv2DT  (None, 32, 32, 40)       78440     
 ranspose)                                                       
                                                                 
 conv2d_transpose_5 (Conv2DT  (None, 64, 64, 40)       78440     
 ranspose)                                                       
                                                                 
 conv2d (Conv2D)             (None, 64, 64, 1)         1961      
                                                                 
=================================================================
Total params: 396,161
Trainable params: 396,161
Non-trainable params: 0
_________________________________________________________________
{'subsample_size': 180, 'filters': 40, 'kernel_size': 7, 'activation': 'relu', 'batch_size': 64}
----------------------
err_loo: 0.0347781974665445
…
3/3 - 0s - loss: 2.6087e-06 - loo: 0.0345 - lr: 2.5000e-04 - 204ms/epoch - 68ms/step
Epoch 500/500
3/3 - 0s - loss: 2.5028e-06 - loo: 0.0342 - lr: 2.5000e-04 - 204ms/epoch - 68ms/step
Total training time: 106.10150933265686 [s]

8/8 [==============================] - 0s 30ms/step
Model: "model_1"
_________________________________________________________________
 Layer (type)                Output Shape              Param #   
=================================================================
 input_2 (InputLayer)        [(None, 2, 1, 1)]         0         
                                                                 
 conv2d_transpose_6 (Conv2DT  (None, 2, 2, 40)         2000      
 ranspose)                                                       
                                                                 
 p_re_lu (PReLU)             (None, 2, 2, 40)          160       
                                                                 
 conv2d_transpose_7 (Conv2DT  (None, 4, 4, 40)         78440     
 ranspose)                                                       
                                                                 
 p_re_lu_1 (PReLU)           (None, 4, 4, 40)          640       
                                                                 
 conv2d_transpose_8 (Conv2DT  (None, 8, 8, 40)         78440     
 ranspose)                                                       
                                                                 
 p_re_lu_2 (PReLU)           (None, 8, 8, 40)          2560      
                                                                 
 conv2d_transpose_9 (Conv2DT  (None, 16, 16, 40)       78440     
 ranspose)                                                       
                                                                 
 p_re_lu_3 (PReLU)           (None, 16, 16, 40)        10240     
                                                                 
 conv2d_transpose_10 (Conv2D  (None, 32, 32, 40)       78440     
 Transpose)                                                      
                                                                 
 p_re_lu_4 (PReLU)           (None, 32, 32, 40)        40960     
                                                                 
 conv2d_transpose_11 (Conv2D  (None, 64, 64, 40)       78440     
 Transpose)                                                      
                                                                 
 p_re_lu_5 (PReLU)           (None, 64, 64, 40)        163840    
                                                                 
 conv2d_1 (Conv2D)           (None, 64, 64, 1)         1961      
                                                                 
=================================================================
Total params: 614,561
Trainable params: 614,561
Non-trainable params: 0
_________________________________________________________________
{'subsample_size': 180, 'filters': 40, 'kernel_size': 7, 'activation': 'prelu', 'batch_size': 64}
----------------------
err_loo: 0.03551367407958924
…
3/3 - 0s - loss: 0.0058 - loo: 0.2618 - lr: 1.7764e-18 - 197ms/epoch - 66ms/step
Epoch 500/500
3/3 - 0s - loss: 0.0058 - loo: 0.2601 - lr: 1.7764e-18 - 209ms/epoch - 70ms/step
Total training time: 105.22482633590698 [s]

8/8 [==============================] - 0s 31ms/step
Model: "model_2"
_________________________________________________________________
 Layer (type)                Output Shape              Param #   
=================================================================
 input_3 (InputLayer)        [(None, 2, 1, 1)]         0         
                                                                 
 conv2d_transpose_12 (Conv2D  (None, 2, 2, 48)         2400      
 Transpose)                                                      
                                                                 
 conv2d_transpose_13 (Conv2D  (None, 4, 4, 48)         112944    
 Transpose)                                                      
                                                                 
 conv2d_transpose_14 (Conv2D  (None, 8, 8, 48)         112944    
 Transpose)                                                      
                                                                 
 conv2d_transpose_15 (Conv2D  (None, 16, 16, 48)       112944    
 Transpose)                                                      
                                                                 
 conv2d_transpose_16 (Conv2D  (None, 32, 32, 48)       112944    
 Transpose)                                                      
                                                                 
 conv2d_transpose_17 (Conv2D  (None, 64, 64, 48)       112944    
 Transpose)                                                      
                                                                 
 conv2d_2 (Conv2D)           (None, 64, 64, 1)         2353      
                                                                 
=================================================================
Total params: 569,473
Trainable params: 569,473
Non-trainable params: 0
_________________________________________________________________
{'subsample_size': 180, 'filters': 48, 'kernel_size': 7, 'activation': 'relu', 'batch_size': 64}
----------------------
err_loo: 0.2771257011325234
…
3/3 - 0s - loss: 3.6969e-06 - loo: 0.0329 - lr: 2.5000e-04 - 234ms/epoch - 78ms/step
Epoch 500/500
3/3 - 0s - loss: 3.6966e-06 - loo: 0.0328 - lr: 2.5000e-04 - 221ms/epoch - 74ms/step
Total training time: 115.42814660072327 [s]

8/8 [==============================] - 0s 33ms/step
Model: "model_3"
_________________________________________________________________
 Layer (type)                Output Shape              Param #   
=================================================================
 input_4 (InputLayer)        [(None, 2, 1, 1)]         0         
                                                                 
 conv2d_transpose_18 (Conv2D  (None, 2, 2, 48)         2400      
 Transpose)                                                      
                                                                 
 p_re_lu_6 (PReLU)           (None, 2, 2, 48)          192       
                                                                 
 conv2d_transpose_19 (Conv2D  (None, 4, 4, 48)         112944    
 Transpose)                                                      
                                                                 
 p_re_lu_7 (PReLU)           (None, 4, 4, 48)          768       
                                                                 
 conv2d_transpose_20 (Conv2D  (None, 8, 8, 48)         112944    
 Transpose)                                                      
                                                                 
 p_re_lu_8 (PReLU)           (None, 8, 8, 48)          3072      
                                                                 
 conv2d_transpose_21 (Conv2D  (None, 16, 16, 48)       112944    
 Transpose)                                                      
                                                                 
 p_re_lu_9 (PReLU)           (None, 16, 16, 48)        12288     
                                                                 
 conv2d_transpose_22 (Conv2D  (None, 32, 32, 48)       112944    
 Transpose)                                                      
                                                                 
 p_re_lu_10 (PReLU)          (None, 32, 32, 48)        49152     
                                                                 
 conv2d_transpose_23 (Conv2D  (None, 64, 64, 48)       112944    
 Transpose)                                                      
                                                                 
 p_re_lu_11 (PReLU)          (None, 64, 64, 48)        196608    
                                                                 
 conv2d_3 (Conv2D)           (None, 64, 64, 1)         2353      
                                                                 
=================================================================
Total params: 831,553
Trainable params: 831,553
Non-trainable params: 0
_________________________________________________________________
{'subsample_size': 180, 'filters': 48, 'kernel_size': 7, 'activation': 'prelu', 'batch_size': 64}
----------------------
err_loo: 0.03311555872408805
…
3/3 - 0s - loss: 2.2008e-06 - loo: 0.0337 - lr: 2.5000e-04 - 294ms/epoch - 98ms/step
Epoch 500/500
3/3 - 0s - loss: 2.2121e-06 - loo: 0.0355 - lr: 2.5000e-04 - 285ms/epoch - 95ms/step
Total training time: 143.11821508407593 [s]

8/8 [==============================] - 0s 38ms/step
Model: "model_4"
_________________________________________________________________
 Layer (type)                Output Shape              Param #   
=================================================================
 input_5 (InputLayer)        [(None, 2, 1, 1)]         0         
                                                                 
 conv2d_transpose_24 (Conv2D  (None, 2, 2, 64)         3200      
 Transpose)                                                      
                                                                 
 conv2d_transpose_25 (Conv2D  (None, 4, 4, 64)         200768    
 Transpose)                                                      
                                                                 
 conv2d_transpose_26 (Conv2D  (None, 8, 8, 64)         200768    
 Transpose)                                                      
                                                                 
 conv2d_transpose_27 (Conv2D  (None, 16, 16, 64)       200768    
 Transpose)                                                      
                                                                 
 conv2d_transpose_28 (Conv2D  (None, 32, 32, 64)       200768    
 Transpose)                                                      
                                                                 
 conv2d_transpose_29 (Conv2D  (None, 64, 64, 64)       200768    
 Transpose)                                                      
                                                                 
 conv2d_4 (Conv2D)           (None, 64, 64, 1)         3137      
                                                                 
=================================================================
Total params: 1,010,177
Trainable params: 1,010,177
Non-trainable params: 0
_________________________________________________________________
{'subsample_size': 180, 'filters': 64, 'kernel_size': 7, 'activation': 'relu', 'batch_size': 64}
----------------------
…
3/3 - 0s - loss: 1.6773e-06 - loo: 0.0276 - lr: 2.5000e-04 - 343ms/epoch - 114ms/step
Epoch 500/500
3/3 - 0s - loss: 1.6803e-06 - loo: 0.0260 - lr: 2.5000e-04 - 347ms/epoch - 116ms/step
Total training time: 168.5940773487091 [s]

8/8 [==============================] - 1s 42ms/step
Model: "model_5"
_________________________________________________________________
 Layer (type)                Output Shape              Param #   
=================================================================
 input_6 (InputLayer)        [(None, 2, 1, 1)]         0         
                                                                 
 conv2d_transpose_30 (Conv2D  (None, 2, 2, 64)         3200      
 Transpose)                                                      
                                                                 
 p_re_lu_12 (PReLU)          (None, 2, 2, 64)          256       
                                                                 
 conv2d_transpose_31 (Conv2D  (None, 4, 4, 64)         200768    
 Transpose)                                                      
                                                                 
 p_re_lu_13 (PReLU)          (None, 4, 4, 64)          1024      
                                                                 
 conv2d_transpose_32 (Conv2D  (None, 8, 8, 64)         200768    
 Transpose)                                                      
                                                                 
 p_re_lu_14 (PReLU)          (None, 8, 8, 64)          4096      
                                                                 
 conv2d_transpose_33 (Conv2D  (None, 16, 16, 64)       200768    
 Transpose)                                                      
                                                                 
 p_re_lu_15 (PReLU)          (None, 16, 16, 64)        16384     
                                                                 
 conv2d_transpose_34 (Conv2D  (None, 32, 32, 64)       200768    
 Transpose)                                                      
                                                                 
 p_re_lu_16 (PReLU)          (None, 32, 32, 64)        65536     
                                                                 
 conv2d_transpose_35 (Conv2D  (None, 64, 64, 64)       200768    
 Transpose)                                                      
                                                                 
 p_re_lu_17 (PReLU)          (None, 64, 64, 64)        262144    
                                                                 
 conv2d_5 (Conv2D)           (None, 64, 64, 1)         3137      
                                                                 
=================================================================
Total params: 1,359,617
Trainable params: 1,359,617
Non-trainable params: 0
_________________________________________________________________
{'subsample_size': 180, 'filters': 64, 'kernel_size': 7, 'activation': 'prelu', 'batch_size': 64}
----------------------
…
