…
2022-10-05 11:03:19.483355: I tensorflow/core/platform/cpu_feature_guard.cc:193] This TensorFlow binary is optimized with oneAPI Deep Neural Network Library (oneDNN) to use the following CPU instructions in performance-critical operations:  AVX2 FMA
To enable them in other operations, rebuild TensorFlow with the appropriate compiler flags.
Data size (7577600, 10)
Model: "model"
_________________________________________________________________
 Layer (type)                Output Shape              Param #   
=================================================================
 input_1 (InputLayer)        [(None, 4)]               0         
                                                                 
 dense (Dense)               (None, 100)               500       
                                                                 
 dense_1 (Dense)             (None, 100)               10100     
                                                                 
 dense_2 (Dense)             (None, 100)               10100     
                                                                 
 dense_3 (Dense)             (None, 100)               10100     
                                                                 
 dense_4 (Dense)             (None, 100)               10100     
                                                                 
 dense_5 (Dense)             (None, 100)               10100     
                                                                 
 dense_6 (Dense)             (None, 100)               10100     
                                                                 
 dense_7 (Dense)             (None, 100)               10100     
                                                                 
 dense_8 (Dense)             (None, 100)               10100     
                                                                 
 dense_9 (Dense)             (None, 100)               10100     
                                                                 
 dense_10 (Dense)            (None, 3)                 303       
                                                                 
=================================================================
Total params: 91,703
Trainable params: 91,703
Non-trainable params: 0
_________________________________________________________________
Epoch 1/200
1250/1250 - 4s - loss: 0.0065 - loo: 0.3440 - lr: 0.0010 - 4s/epoch - 3ms/step
Epoch 2/200
1250/1250 - 3s - loss: 0.0026 - loo: 0.2874 - lr: 0.0010 - 3s/epoch - 2ms/step
…
{'xi_kind': 'param', 'depth': 10, 'width': 100, 'activation': 'elu', 'subsample_size': 160000, 'batch_size': 32}
----------------------
err_loo: 7.115900039672859
err_mae: 0.0007596253122417683
err_mse: 0.005802031274686114
----------------------
Data size (7577600, 10)
Model: "model_3"
_________________________________________________________________
 Layer (type)                Output Shape              Param #   
=================================================================
 input_4 (InputLayer)        [(None, 4)]               0         
                                                                 
 dense_33 (Dense)            (None, 150)               750       
                                                                 
 dense_34 (Dense)            (None, 150)               22650     
                                                                 
 dense_35 (Dense)            (None, 150)               22650     
                                                                 
 dense_36 (Dense)            (None, 150)               22650     
                                                                 
 dense_37 (Dense)            (None, 150)               22650     
                                                                 
 dense_38 (Dense)            (None, 150)               22650     
                                                                 
 dense_39 (Dense)            (None, 150)               22650     
                                                                 
 dense_40 (Dense)            (None, 150)               22650     
                                                                 
 dense_41 (Dense)            (None, 150)               22650     
                                                                 
 dense_42 (Dense)            (None, 150)               22650     
                                                                 
 dense_43 (Dense)            (None, 3)                 453       
                                                                 
=================================================================
Total params: 205,053
Trainable params: 205,053
Non-trainable params: 0
_________________________________________________________________
Epoch 1/200
2500/2500 - 7s - loss: 0.0065 - loo: 0.2807 - lr: 0.0010 - 7s/epoch - 3ms/step
Epoch 2/200
2500/2500 - 7s - loss: 0.0025 - loo: 0.2293 - lr: 0.0010 - 7s/epoch - 3ms/step
…
{'xi_kind': 'param', 'depth': 10, 'width': 150, 'activation': 'elu', 'subsample_size': 80000, 'batch_size': 32}
----------------------
err_loo: 1.0035654818609552
err_mae: 0.0009744426136908378
err_mse: 0.007348636658549255
----------------------
Data size (7577600, 10)
Model: "model_4"
_________________________________________________________________
 Layer (type)                Output Shape              Param #   
=================================================================
 input_5 (InputLayer)        [(None, 4)]               0         
                                                                 
 dense_44 (Dense)            (None, 200)               1000      
                                                                 
 dense_45 (Dense)            (None, 200)               40200     
                                                                 
 dense_46 (Dense)            (None, 200)               40200     
                                                                 
 dense_47 (Dense)            (None, 200)               40200     
                                                                 
 dense_48 (Dense)            (None, 200)               40200     
                                                                 
 dense_49 (Dense)            (None, 200)               40200     
                                                                 
 dense_50 (Dense)            (None, 200)               40200     
                                                                 
 dense_51 (Dense)            (None, 200)               40200     
                                                                 
 dense_52 (Dense)            (None, 200)               40200     
                                                                 
 dense_53 (Dense)            (None, 200)               40200     
                                                                 
 dense_54 (Dense)            (None, 3)                 603       
                                                                 
=================================================================
Total params: 363,403
Trainable params: 363,403
Non-trainable params: 0
_________________________________________________________________
Epoch 1/200
2500/2500 - 9s - loss: 0.0092 - loo: 0.2785 - lr: 0.0010 - 9s/epoch - 4ms/step
Epoch 2/200
2500/2500 - 9s - loss: 0.0024 - loo: 0.2268 - lr: 0.0010 - 9s/epoch - 3ms/step
…
