…
625/625 - 1s - loss: 1.0003e-06 - loo: 0.0032 - lr: 1.5625e-05 - 685ms/epoch - 1ms/step
Epoch 300/300
625/625 - 1s - loss: 1.0071e-06 - loo: 0.0033 - lr: 1.5625e-05 - 693ms/epoch - 1ms/step
Total training time: 209.73423981666565 [s]

113408/113408 [==============================] - 92s 812us/step
Model: "model"
_________________________________________________________________
 Layer (type)                Output Shape              Param #   
=================================================================
 input_1 (InputLayer)        [(None, 4)]               0         
                                                                 
 dense (Dense)               (None, 60)                300       
                                                                 
 dense_1 (Dense)             (None, 60)                3660      
                                                                 
 dense_2 (Dense)             (None, 60)                3660      
                                                                 
 dense_3 (Dense)             (None, 60)                3660      
                                                                 
 dense_4 (Dense)             (None, 60)                3660      
                                                                 
 dense_5 (Dense)             (None, 60)                3660      
                                                                 
 dense_6 (Dense)             (None, 1)                 61        
                                                                 
=================================================================
Total params: 18,661
Trainable params: 18,661
Non-trainable params: 0
_________________________________________________________________
{'xi_kind': 'param', 'depth': 6, 'width': 60, 'activation': 'tanh', 'subsample_size': 20000}
----------------------
…
625/625 - 1s - loss: 2.6846e-07 - loo: 0.0017 - lr: 7.8125e-06 - 782ms/epoch - 1ms/step
Epoch 300/300
625/625 - 1s - loss: 2.6895e-07 - loo: 0.0017 - lr: 7.8125e-06 - 768ms/epoch - 1ms/step
Total training time: 237.148699760437 [s]

113408/113408 [==============================] - 90s 794us/step
Model: "model_2"
_________________________________________________________________
 Layer (type)                Output Shape              Param #   
=================================================================
 input_3 (InputLayer)        [(None, 4)]               0         
                                                                 
 dense_14 (Dense)            (None, 70)                350       
                                                                 
 dense_15 (Dense)            (None, 70)                4970      
                                                                 
 dense_16 (Dense)            (None, 70)                4970      
                                                                 
 dense_17 (Dense)            (None, 70)                4970      
                                                                 
 dense_18 (Dense)            (None, 70)                4970      
                                                                 
 dense_19 (Dense)            (None, 70)                4970      
                                                                 
 dense_20 (Dense)            (None, 70)                4970      
                                                                 
 dense_21 (Dense)            (None, 1)                 71        
                                                                 
=================================================================
Total params: 30,241
Trainable params: 30,241
Non-trainable params: 0
_________________________________________________________________
{'xi_kind': 'param', 'depth': 7, 'width': 70, 'activation': 'tanh', 'subsample_size': 20000}
----------------------
…
625/625 - 1s - loss: 4.5281e-07 - loo: 0.0021 - lr: 3.1250e-05 - 839ms/epoch - 1ms/step
Epoch 300/300
625/625 - 1s - loss: 4.4801e-07 - loo: 0.0021 - lr: 3.1250e-05 - 846ms/epoch - 1ms/step
Total training time: 257.01077604293823 [s]

113408/113408 [==============================] - 104s 917us/step
Model: "model_4"
_________________________________________________________________
 Layer (type)                Output Shape              Param #   
=================================================================
 input_5 (InputLayer)        [(None, 4)]               0         
                                                                 
 dense_30 (Dense)            (None, 80)                400       
                                                                 
 dense_31 (Dense)            (None, 80)                6480      
                                                                 
 dense_32 (Dense)            (None, 80)                6480      
                                                                 
 dense_33 (Dense)            (None, 80)                6480      
                                                                 
 dense_34 (Dense)            (None, 80)                6480      
                                                                 
 dense_35 (Dense)            (None, 80)                6480      
                                                                 
 dense_36 (Dense)            (None, 80)                6480      
                                                                 
 dense_37 (Dense)            (None, 80)                6480      
                                                                 
 dense_38 (Dense)            (None, 1)                 81        
                                                                 
=================================================================
Total params: 45,841
Trainable params: 45,841
Non-trainable params: 0
_________________________________________________________________
{'xi_kind': 'param', 'depth': 8, 'width': 80, 'activation': 'tanh', 'subsample_size': 20000}
----------------------
…
625/625 - 1s - loss: 3.4675e-07 - loo: 0.0019 - lr: 1.5625e-05 - 1000ms/epoch - 2ms/step
Epoch 300/300
625/625 - 1s - loss: 3.4911e-07 - loo: 0.0019 - lr: 1.5625e-05 - 1s/epoch - 2ms/step
Total training time: 296.6228439807892 [s]

113408/113408 [==============================] - 126s 1ms/step
Model: "model_6"
_________________________________________________________________
 Layer (type)                Output Shape              Param #   
=================================================================
 input_7 (InputLayer)        [(None, 4)]               0         
                                                                 
 dense_48 (Dense)            (None, 90)                450       
                                                                 
 dense_49 (Dense)            (None, 90)                8190      
                                                                 
 dense_50 (Dense)            (None, 90)                8190      
                                                                 
 dense_51 (Dense)            (None, 90)                8190      
                                                                 
 dense_52 (Dense)            (None, 90)                8190      
                                                                 
 dense_53 (Dense)            (None, 90)                8190      
                                                                 
 dense_54 (Dense)            (None, 90)                8190      
                                                                 
 dense_55 (Dense)            (None, 90)                8190      
                                                                 
 dense_56 (Dense)            (None, 90)                8190      
                                                                 
 dense_57 (Dense)            (None, 1)                 91        
                                                                 
=================================================================
Total params: 66,061
Trainable params: 66,061
Non-trainable params: 0
_________________________________________________________________
{'xi_kind': 'param', 'depth': 9, 'width': 90, 'activation': 'tanh', 'subsample_size': 20000}
----------------------
…
