…
93/93 - 8s - loss: 2.0866e-04 - loo: 0.0393 - lr: 6.2500e-05 - 8s/epoch - 86ms/step
Epoch 200/200
93/93 - 8s - loss: 2.0853e-04 - loo: 0.0352 - lr: 6.2500e-05 - 8s/epoch - 86ms/step
Total training time: 1596.9515705108643 [s]

58/58 [==============================] - 5s 76ms/step
Model: "model"
_________________________________________________________________
 Layer (type)                Output Shape              Param #   
=================================================================
 input_1 (InputLayer)        [(None, 2, 1, 1)]         0         
                                                                 
 conv2d_transpose (Conv2DTra  (None, 2, 2, 64)         7808      
 nspose)                                                         
                                                                 
 p_re_lu (PReLU)             (None, 2, 2, 64)          256       
                                                                 
 conv2d_transpose_1 (Conv2DT  (None, 4, 4, 64)         495680    
 ranspose)                                                       
                                                                 
 p_re_lu_1 (PReLU)           (None, 4, 4, 64)          1024      
                                                                 
 conv2d_transpose_2 (Conv2DT  (None, 8, 8, 64)         495680    
 ranspose)                                                       
                                                                 
 p_re_lu_2 (PReLU)           (None, 8, 8, 64)          4096      
                                                                 
 conv2d_transpose_3 (Conv2DT  (None, 16, 16, 64)       495680    
 ranspose)                                                       
                                                                 
 p_re_lu_3 (PReLU)           (None, 16, 16, 64)        16384     
                                                                 
 conv2d_transpose_4 (Conv2DT  (None, 32, 32, 64)       495680    
 ranspose)                                                       
                                                                 
 p_re_lu_4 (PReLU)           (None, 32, 32, 64)        65536     
                                                                 
 conv2d_transpose_5 (Conv2DT  (None, 64, 64, 64)       495680    
 ranspose)                                                       
                                                                 
 p_re_lu_5 (PReLU)           (None, 64, 64, 64)        262144    
                                                                 
 conv2d (Conv2D)             (None, 64, 64, 3)         23235     
                                                                 
=================================================================
Total params: 2,858,883
Trainable params: 2,858,883
Non-trainable params: 0
_________________________________________________________________
{'train_frac': 0.8, 'kernel_size': 11, 'activation': 'prelu', 'filters': 64, 'batch_size': 16, 'strides': [2, 2, 2, 2, 2]}
…
93/93 - 5s - loss: 2.2578e-04 - loo: 0.0262 - lr: 3.1250e-05 - 5s/epoch - 55ms/step
Epoch 200/200
93/93 - 5s - loss: 2.2594e-04 - loo: 0.0263 - lr: 3.1250e-05 - 5s/epoch - 56ms/step
Total training time: 1037.6600348949432 [s]

58/58 [==============================] - 3s 48ms/step
Model: "model_2"
_________________________________________________________________
 Layer (type)                Output Shape              Param #   
=================================================================
 input_3 (InputLayer)        [(None, 2, 1, 1)]         0         
                                                                 
 conv2d_transpose_12 (Conv2D  (None, 2, 2, 40)         2000      
 Transpose)                                                      
                                                                 
 p_re_lu_12 (PReLU)          (None, 2, 2, 40)          160       
                                                                 
 conv2d_transpose_13 (Conv2D  (None, 4, 4, 40)         78440     
 Transpose)                                                      
                                                                 
 p_re_lu_13 (PReLU)          (None, 4, 4, 40)          640       
                                                                 
 conv2d_transpose_14 (Conv2D  (None, 4, 4, 40)         78440     
 Transpose)                                                      
                                                                 
 p_re_lu_14 (PReLU)          (None, 4, 4, 40)          640       
                                                                 
 conv2d_transpose_15 (Conv2D  (None, 8, 8, 40)         78440     
 Transpose)                                                      
                                                                 
 p_re_lu_15 (PReLU)          (None, 8, 8, 40)          2560      
                                                                 
 conv2d_transpose_16 (Conv2D  (None, 8, 8, 40)         78440     
 Transpose)                                                      
                                                                 
 p_re_lu_16 (PReLU)          (None, 8, 8, 40)          2560      
                                                                 
 conv2d_transpose_17 (Conv2D  (None, 16, 16, 40)       78440     
 Transpose)                                                      
                                                                 
 p_re_lu_17 (PReLU)          (None, 16, 16, 40)        10240     
                                                                 
 conv2d_transpose_18 (Conv2D  (None, 16, 16, 40)       78440     
 Transpose)                                                      
                                                                 
 p_re_lu_18 (PReLU)          (None, 16, 16, 40)        10240     
                                                                 
 conv2d_transpose_19 (Conv2D  (None, 32, 32, 40)       78440     
 Transpose)                                                      
                                                                 
 p_re_lu_19 (PReLU)          (None, 32, 32, 40)        40960     
                                                                 
 conv2d_transpose_20 (Conv2D  (None, 32, 32, 40)       78440     
 Transpose)                                                      
                                                                 
 p_re_lu_20 (PReLU)          (None, 32, 32, 40)        40960     
                                                                 
 conv2d_transpose_21 (Conv2D  (None, 64, 64, 40)       78440     
 Transpose)                                                      
                                                                 
 p_re_lu_21 (PReLU)          (None, 64, 64, 40)        163840    
                                                                 
 conv2d_2 (Conv2D)           (None, 64, 64, 3)         5883      
                                                                 
=================================================================
Total params: 986,643
Trainable params: 986,643
Non-trainable params: 0
_________________________________________________________________
{'train_frac': 0.8, 'kernel_size': 7, 'activation': 'prelu', 'filters': 40, 'batch_size': 16, 'strides': [2, 1, 2, 1, 2, 1, 2, 1, 2]}
…
93/93 - 9s - loss: 2.5372e-04 - loo: 0.0358 - lr: 1.2500e-04 - 9s/epoch - 98ms/step
Epoch 200/200
93/93 - 9s - loss: 2.4622e-04 - loo: 0.0321 - lr: 1.2500e-04 - 9s/epoch - 96ms/step
Total training time: 1802.60040974617 [s]

58/58 [==============================] - 5s 85ms/step
Model: "model_3"
_________________________________________________________________
 Layer (type)                Output Shape              Param #   
=================================================================
 input_4 (InputLayer)        [(None, 2, 1, 1)]         0         
                                                                 
 conv2d_transpose_22 (Conv2D  (None, 2, 2, 72)         3600      
 Transpose)                                                      
                                                                 
 p_re_lu_22 (PReLU)          (None, 2, 2, 72)          288       
                                                                 
 conv2d_transpose_23 (Conv2D  (None, 4, 4, 72)         254088    
 Transpose)                                                      
                                                                 
 p_re_lu_23 (PReLU)          (None, 4, 4, 72)          1152      
                                                                 
 conv2d_transpose_24 (Conv2D  (None, 4, 4, 72)         254088    
 Transpose)                                                      
                                                                 
 p_re_lu_24 (PReLU)          (None, 4, 4, 72)          1152      
                                                                 
 conv2d_transpose_25 (Conv2D  (None, 8, 8, 72)         254088    
 Transpose)                                                      
                                                                 
 p_re_lu_25 (PReLU)          (None, 8, 8, 72)          4608      
                                                                 
 conv2d_transpose_26 (Conv2D  (None, 8, 8, 72)         254088    
 Transpose)                                                      
                                                                 
 p_re_lu_26 (PReLU)          (None, 8, 8, 72)          4608      
                                                                 
 conv2d_transpose_27 (Conv2D  (None, 16, 16, 72)       254088    
 Transpose)                                                      
                                                                 
 p_re_lu_27 (PReLU)          (None, 16, 16, 72)        18432     
                                                                 
 conv2d_transpose_28 (Conv2D  (None, 16, 16, 72)       254088    
 Transpose)                                                      
                                                                 
 p_re_lu_28 (PReLU)          (None, 16, 16, 72)        18432     
                                                                 
 conv2d_transpose_29 (Conv2D  (None, 32, 32, 72)       254088    
 Transpose)                                                      
                                                                 
 p_re_lu_29 (PReLU)          (None, 32, 32, 72)        73728     
                                                                 
 conv2d_transpose_30 (Conv2D  (None, 32, 32, 72)       254088    
 Transpose)                                                      
                                                                 
 p_re_lu_30 (PReLU)          (None, 32, 32, 72)        73728     
                                                                 
 conv2d_transpose_31 (Conv2D  (None, 64, 64, 72)       254088    
 Transpose)                                                      
                                                                 
 p_re_lu_31 (PReLU)          (None, 64, 64, 72)        294912    
                                                                 
 conv2d_3 (Conv2D)           (None, 64, 64, 3)         10587     
                                                                 
=================================================================
Total params: 2,792,019
Trainable params: 2,792,019
Non-trainable params: 0
_________________________________________________________________
{'train_frac': 0.8, 'kernel_size': 7, 'activation': 'prelu', 'filters': 72, 'batch_size': 16, 'strides': [2, 1, 2, 1, 2, 1, 2, 1, 2]}
…
93/93 - 7s - loss: 0.0024 - loo: 0.3193 - lr: 1.5625e-05 - 7s/epoch - 72ms/step
Epoch 200/200
93/93 - 7s - loss: 0.0024 - loo: 0.3281 - lr: 1.5625e-05 - 7s/epoch - 72ms/step
Total training time: 1342.4896748065948 [s]

58/58 [==============================] - 4s 64ms/step
Model: "model_4"
_________________________________________________________________
 Layer (type)                Output Shape              Param #   
=================================================================
 input_5 (InputLayer)        [(None, 2, 1, 1)]         0         
                                                                 
 conv2d_transpose_32 (Conv2D  (None, 2, 2, 40)         3280      
 Transpose)                                                      
                                                                 
 p_re_lu_32 (PReLU)          (None, 2, 2, 40)          160       
                                                                 
 conv2d_transpose_33 (Conv2D  (None, 4, 4, 40)         129640    
 Transpose)                                                      
                                                                 
 p_re_lu_33 (PReLU)          (None, 4, 4, 40)          640       
                                                                 
 conv2d_transpose_34 (Conv2D  (None, 4, 4, 40)         129640    
 Transpose)                                                      
                                                                 
 p_re_lu_34 (PReLU)          (None, 4, 4, 40)          640       
                                                                 
 conv2d_transpose_35 (Conv2D  (None, 8, 8, 40)         129640    
 Transpose)                                                      
                                                                 
 p_re_lu_35 (PReLU)          (None, 8, 8, 40)          2560      
                                                                 
 conv2d_transpose_36 (Conv2D  (None, 8, 8, 40)         129640    
 Transpose)                                                      
                                                                 
 p_re_lu_36 (PReLU)          (None, 8, 8, 40)          2560      
                                                                 
 conv2d_transpose_37 (Conv2D  (None, 16, 16, 40)       129640    
 Transpose)                                                      
                                                                 
 p_re_lu_37 (PReLU)          (None, 16, 16, 40)        10240     
                                                                 
 conv2d_transpose_38 (Conv2D  (None, 16, 16, 40)       129640    
 Transpose)                                                      
                                                                 
 p_re_lu_38 (PReLU)          (None, 16, 16, 40)        10240     
                                                                 
 conv2d_transpose_39 (Conv2D  (None, 32, 32, 40)       129640    
 Transpose)                                                      
                                                                 
 p_re_lu_39 (PReLU)          (None, 32, 32, 40)        40960     
                                                                 
 conv2d_transpose_40 (Conv2D  (None, 32, 32, 40)       129640    
 Transpose)                                                      
                                                                 
 p_re_lu_40 (PReLU)          (None, 32, 32, 40)        40960     
                                                                 
 conv2d_transpose_41 (Conv2D  (None, 64, 64, 40)       129640    
 Transpose)                                                      
                                                                 
 p_re_lu_41 (PReLU)          (None, 64, 64, 40)        163840    
                                                                 
 conv2d_4 (Conv2D)           (None, 64, 64, 3)         9723      
                                                                 
=================================================================
Total params: 1,452,563
Trainable params: 1,452,563
Non-trainable params: 0
_________________________________________________________________
{'train_frac': 0.8, 'kernel_size': 9, 'activation': 'prelu', 'filters': 40, 'batch_size': 16, 'strides': [2, 1, 2, 1, 2, 1, 2, 1, 2]}
…
